gru_20141393.pth (torch, 404551 bytes, 10 tensors)

rnn.weight_ih_l0 f4 [300, 28]
000000 19 0a 1a 3e 50 56 ea bd 09 94 f7 3d b1 10 a6 3d
       0.15042914 -0.11442244 0.12088782 0.081086524
000010 ce 99 e9 3b 1c 99 00 3d 71 95 e9 bc 0f e1 0c 3d
       0.0071289307 0.031396016 -0.028513642 0.03439432
000020 cf cf 2b 3e 0b 9b 05 bd 52 84 34 3d 2c b8 20 3e
       0.16778491 -0.032618564 0.044071503 0.15695256
000030 8c b9 23 3e 01 fa 9b 3d 90 f2 d9 bc e2 44 7a be
       0.1598875 0.07616044 -0.02660492 -0.24440339
000040 54 98 98 be 2a 67 9b be fa 76 7c bd 97 48 9a bd
       -0.29803717 -0.30352145 -0.061636902 -0.07533377
000050 72 9d 1a bd 72 cd 22 3d e3 ce a5 3c 60 f5 1c 3c
       -0.037747808 0.03974671 0.020240253 0.009579986
000060 4b 80 1c 3e ca 53 74 3c 3a cd 8a 3e 7a 00 61 3e
       0.15283315 0.014912555 0.271097 0.21972838
000070 26 bf c8 3d 40 22 4f 3d f5 db a1 bc 8e c5 0c bd
       0.09802084 0.050569773 -0.019758204 -0.03436809
000080 50 da 75 bd d3 f8 0c be 19 0a 83 3d 71 db 2a 3d
       -0.060022652 -0.13766794 0.0639841 0.041713182
000090 0a a8 b0 3d 88 c7 c4 3c 8d 92 39 bd 28 1a e9 3c
       0.08625801 0.024020925 -0.045305777 0.028454855
0000a0 6d 36 37 bd 24 bb 1f be 97 6a 11 3b c5 05 67 be
       -0.04472964 -0.15598732 0.0022188777 -0.22560795
0000b0 87 9b 84 bd f3 55 a2 3d 8f b5 d2 3c cb f2 b7 bd
       -0.06474977 0.0792655 0.02572134 -0.08981856
0000c0 f3 f1 ae 3d 0c 1f 50 3d b3 75 37 3c 73 06 13 bd
       0.08542242 0.05081086 0.011197495 -0.035894822
0000d0 6d e1 9a bd a5 4c 71 3d e9 dc 81 3e d9 b1 c7 bd
       -0.07562528 0.058910985 0.25363854 -0.097507186
0000e0 6d f7 e9 3d 76 14 12 3d 7a 78 86 3e 60 aa 66 bc
       0.11424146 0.035664044 0.2626379 -0.0140787065
0000f0 20 3c 70 3d 82 37 7d bd 6f b2 d8 3d 28 54 07 3e
       0.05865109 -0.061820515 0.105809085 0.13215697
000100 2d 15 c7 3d 06 76 b9 3d e8 cb 0d bc 88 ce cf 3d
       0.09720836 0.09055714 -0.008654572 0.101468146
000110 5c 2a 98 bd f5 f0 01 be 54 ef 39 3b 2b 8b 7c 3d
       -0.074299544 -0.12689574 0.002837141 0.06165616
000120 ea 30 a1 3d a8 ee bb 3d 5e 0b 62 bd 7b 1d 5e 3d
       0.07870658 0.091763794 -0.05518662 0.054227334
000130 21 17 31 3e 9e 6b d9 3d 57 88 87 3d 02 11 32 3d
       0.17293979 0.106162295 0.06617802 0.04347325
000140 62 ba 52 bd 42 67 bf 3d b7 66 dc bd 89 43 99 be
       -0.05144728 0.09345867 -0.10761779 -0.29934338
000150 c0 70 6b 3e 2e d6 a4 bd 0e 95 3a 3e af 07 76 bd
       0.2299223 -0.08048664 0.18220922 -0.06006592
000160 f0 72 01 be 02 86 56 bd b1 12 35 3d 94 da 78 3d
       -0.12641501 -0.052373894 0.04420728 0.060755327
000170 d4 a3 ee 3d 76 53 e0 3d 61 b3 84 3d fa dc c8 3d
       0.116523415 0.10953419 0.06479526 0.09807773
000180 83 28 c5 bd fa a4 b3 bd 67 1a 92 3d ad 93 04 3e
       -0.096268676 -0.08771701 0.07133942 0.12946959
000190 0e 39 2f 3d 41 e1 4b 3d 9a d8 91 3e d5 84 24 3e
       0.04277902 0.049775366 0.28485566 0.16066296
0001a0 e4 3c 1a 3e b5 b5 37 3d 52 d8 a4 3d 28 73 5a bd
       0.1506229 0.044851024 0.08049072 -0.053332478
0001b0 a7 02 c7 bd ee 0c a7 bd a2 fb a7 3d 75 b1 82 3e
       -0.09717303 -0.08156763 0.08202292 0.25526014
0001c0 33 25 d6 bd 13 3e bc 3c 87 f6 72 be b0 a9 8f be
       -0.10456314 0.022978818 -0.23726855 -0.2805915
0001d0 6f 51 6a be 47 cc 9a bd e5 5c 2f 3d 69 f4 28 3d
       -0.22882627 -0.07558494 0.0428132 0.041248713
0001e0 c5 2c 80 bd bf f3 9b bd 24 aa 34 be d6 05 a5 bd
       -0.06258539 -0.0761485 -0.17643028 -0.08057754
0001f0 2b 33 27 bd dd c2 e8 bd 1c 08 e7 3b 75 16 92 be
       -0.040820282 -0.11365292 0.0070505273 -0.28532758
000200 de ce 81 be 0c 23 0e be 33 e7 3a be ca 8c 08 be
       -0.2535314 -0.13880557 -0.18252258 -0.13334957
000210 29 8d 63 bd e7 ed 22 be c7 be 88 be f8 0d c0 bd
       -0.055554543 -0.15911065 -0.26708052 -0.09377664
000220 55 14 34 bc 2d 7f 42 be 4e 30 92 bd 2b 15 24 be
       -0.010991176 -0.18993826 -0.0713812 -0.160237
000230 f9 be 8c 3d 1f 19 87 3c 76 7e 4f 3d 72 6b 60 3c
       0.06872363 0.01649147 0.050657712 0.013697492
000240 d0 94 d0 3d aa 45 ac bd 6b f0 78 3d 60 c5 21 3c
       0.10184634 -0.08411725 0.060776155 0.009873718
000250 b9 9f af bd 48 b7 99 bd 1b b3 1b be 2c 94 93 bd
       -0.085753866 -0.07505661 -0.15205042 -0.07205996
000260 8a 66 42 be 83 59 0d bd 34 19 a1 3d ce cc ea 3d
       -0.18984428 -0.034509193 0.07866135 0.11464845
000270 28 b6 59 3e 98 9c 2e 3e 20 e5 8a bd b2 11 2e 3d
       0.21260893 0.17051923 -0.067819834 0.042497344
000280 f6 a2 b6 bd 98 79 b6 3d 7a 55 36 3e 73 d9 db 3d
       -0.08917801 0.08909911 0.17806044 0.107348345
000290 e3 82 eb bd 41 d6 8a be a9 5b 13 be ac 7f 41 be
       -0.11499574 -0.27116588 -0.14390434 -0.18896359
0002a0 4d 64 94 bd 5b 88 18 bd 11 53 bb bd fd 91 25 be
       -0.07245693 -0.037239414 -0.09146703 -0.16168971
0002b0 27 44 76 bc 3a a5 11 3e 38 99 b1 bc 73 d3 c2 3d
       -0.015030897 0.14223185 -0.021679506 0.09512987
0002c0 1c b5 fb 3d 88 c9 5f 3e a4 91 0d 3d 68 b9 1a bd
       0.12290403 0.21854222 0.03456272 -0.037774473
0002d0 99 af 19 bd 94 19 df 3c fd 87 08 be ef 24 92 be
       -0.03752098 0.027233876 -0.13333125 -0.28543803
0002e0 e0 4d 73 be da 10 a5 be be 54 93 be dd 11 fe bd
       -0.23760176 -0.3223942 -0.2877559 -0.12405751
0002f0 39 bb 08 be 19 6d 09 3c 17 54 9c bd 76 85 2d 3c
       -0.1335267 0.008387827 -0.07633226 0.010590902
000300 98 f4 89 bd 0c d1 a7 3c da 5c 59 3e 15 18 cd 3c
       -0.06736106 0.020485424 0.21226826 0.025035897
000310 7e 18 ca bd f6 a5 0c 3c 65 84 a8 3d 1a 3d 1a 3e
       -0.09867953 0.00858449 0.08228377 0.15062371
000320 fa 77 3f 3e 82 d4 8c 3d 36 72 bd 3d 09 68 f5 3d
       0.18698111 0.0687647 0.092503 0.11982734
000330 90 bc 9f 3d fa 05 8d bd 17 a8 0c be 3e b4 79 bd
       0.07799637 -0.068859056 -0.13735996 -0.060962908
000340 46 5b 7b 3d 36 21 52 3c fe 41 61 3d 3b c6 0a bd
       0.061366342 0.012825301 0.054994576 -0.033880454
000350 85 e2 a2 3d e8 ec 3b 3d 8d 20 59 3d 19 15 18 be
       0.079533614 0.04588023 0.05300956 -0.14851798
000360 b8 d5 6c be d3 0c 8a be 0a f9 a6 be e4 82 30 be
       -0.23128402 -0.2696291 -0.32611877 -0.17237431
000370 a3 25 0f be f3 0b 14 bb 8e 20 f7 3a 89 f7 6c ba
       -0.13979201 -0.002259013 0.0018854307 -0.0009039571
000380 38 26 5d bd 1c 46 28 3d 70 aa ce 3d ce 8b ea 3d
       -0.053991526 0.041082487 0.10091102 0.11452447
000390 8b 8b df bc 62 44 7c 3d 49 ae b5 bd ff 2b 8b bd
       -0.027288219 0.061588652 -0.08871133 -0.06795501
0003a0 0c b4 03 3a 5e 12 88 3e 0c 22 5b 3d 17 96 22 3d
       0.00050240825 0.26576513 0.053499267 0.039693918
0003b0 19 18 33 bd e8 88 4f be 5c ce f2 bc 5b 00 02 3e
       -0.043724153 -0.2026707 -0.029639415 0.12695448
0003c0 e1 5e f6 3a 82 f1 a7 bb 19 a6 d2 3d f6 89 98 bd
       0.0018796587 -0.0051252255 0.10285587 -0.07448189
0003d0 ca e7 7e bb 0e 54 1a 3c 12 8d 5f 3b ef f8 da bd
       -0.0038895481 0.009419454 0.0034111184 -0.106920116
0003e0 7c ae 1b be 82 a7 42 3c 02 ea 12 be 3a 69 ba bd
       -0.1520328 0.011880757 -0.1434708 -0.091021016
0003f0 71 34 12 3e 27 6c a4 3d 73 d1 4d bc 6c be d2 3d
       0.14277817 0.08028441 -0.012562144 0.10290226

rnn.weight_hh_l0 f4 [300, 100]
000000 59 6e b4 3d e1 d7 33 bd 23 e6 f0 3d 4f 6d 16 be
       0.0881011 -0.04390705 0.11762645 -0.14690135
000010 b5 4c 46 bd 5f 22 3f 3e 24 1b e8 bd d8 4b 56 3e
       -0.048412997 0.18665455 -0.11333302 0.2092737
000020 e7 73 8f bd d5 a0 0a bc b6 ed 8a 3e 38 b2 43 3e
       -0.070045285 -0.008461197 0.27134484 0.19110954
000030 d4 73 05 be 4e 48 3c be f0 db 49 bd a5 1e 2f be
       -0.13032466 -0.18386957 -0.049282014 -0.17101534
000040 e0 2c 6a bd 18 94 64 bd 3c ec 89 bd 8f b1 19 3e
       -0.057171702 -0.055805296 -0.06734511 0.1500914
000050 5a fa 48 bd fd 3e 43 be 87 0e 85 bd 20 33 32 3d
       -0.04906688 -0.19066997 -0.064969115 0.043505788
000060 50 79 a0 3d 94 ef b1 3d ac fc 96 bd b6 3e 9c 3d
       0.078356385 0.08688274 -0.07372412 0.07629149
000070 05 b8 e0 3c 2b 30 32 bd 06 70 8a be df 12 b3 bd
       0.027431497 -0.043502968 -0.27038592 -0.08743834
000080 c1 16 ab 3d 23 39 78 be fb 44 11 bc fc de f9 bd
       0.08353949 -0.24240546 -0.008866544 -0.12200734
000090 b1 41 e6 3d 38 70 24 3e 74 f8 48 be 19 e8 54 3d
       0.112429984 0.16058433 -0.19626027 0.051979158
0000a0 6c 4e 0a 3e 3e 3f 08 3e db 42 35 3e 57 13 ef bc
       0.13506478 0.13305375 0.17701285 -0.029184027
0000b0 e0 68 d3 bd e5 63 8b 3d 8d 69 bd bc 43 56 fa 3c
       -0.10322738 0.06806163 -0.02312162 0.03055871
0000c0 81 a5 cd bb 6d ef b5 3c 25 6e 09 be 30 4b b2 3d
       -0.006275833 0.022208894 -0.13420923 0.08705747
0000d0 b9 07 da bd f9 35 46 3e 0b db a3 3d f3 3f c5 3e
       -0.10646004 0.19356526 0.080007635 0.38525352
0000e0 a4 61 4c be d9 4c 6f 3c 83 8a 7b bd 1f 7c 2e 3e
       -0.19959122 0.014605724 -0.061411392 0.17039536
0000f0 98 b7 e0 3b 43 b1 39 be 12 a2 50 bd fe 34 64 bb
       0.0068578236 -0.18134026 -0.050935812 -0.0034821625
000100 14 7d 70 be 5a 02 d4 bc 32 90 8d 3d 80 4b 5a 3d
       -0.23485214 -0.025880028 0.06912269 0.05329466
000110 fe 03 8c be 15 f5 5c 3d 20 52 a3 3d f2 2b 88 3c
       -0.27346796 0.053944666 0.079746485 0.016622517
000120 fe 68 3f 3e 8e 26 93 bd 18 6a 1f be 03 d9 88 bd
       0.18692395 -0.07185088 -0.15567815 -0.06682017
000130 3a c8 22 3e 18 2d 81 be b6 d0 59 bd 16 ad 43 bd
       0.15896693 -0.25229716 -0.053177558 -0.04777249
000140 3d 1e 24 3e 85 1d 36 3e 01 e6 33 be 8e 01 97 bd
       0.1602716 0.17784698 -0.17568208 -0.073733434
000150 47 ca f4 bd e1 a3 23 3c 91 6f fa 3d 2f 23 2a 3d
       -0.11952644 0.009987802 0.12228311 0.04153746
000160 f4 b3 69 3e f2 ec cb 3c 28 c6 54 3e 93 d2 e3 3c
       0.22822553 0.024893258 0.20778716 0.02781037
000170 b0 5f 08 be 01 31 35 3e b6 60 6d bc 57 80 cd 3d
       -0.13317752 0.17694475 -0.01448839 0.100342445
000180 0f e2 8e 3c 68 82 fe 3c 92 d7 9d 3e 27 02 11 3d
       0.017441778 0.031068042 0.3082853 0.035402443
000190 5c 3a 17 bd 98 2e 0d bd 96 1a e5 3a 18 70 a3 bd
       -0.03692089 -0.034468263 0.0017479237 -0.079803646
0001a0 95 9d 39 3a 8b 41 ae 3c 09 ea 87 bd 34 78 0b bd
       0.00070806715 0.021271488 -0.066364355 -0.03405018
0001b0 3b 35 4e be c2 04 05 3d 53 9f 34 3e ab 9e 11 3e
       -0.20137493 0.03247524 0.17638902 0.14220683
0001c0 55 7e 8b bc e5 97 78 bd 0f 10 a7 bc 34 22 f2 bc
       -0.017028013 -0.060691733 -0.0203934 -0.029557325
0001d0 b3 e7 ab bc 2f 76 d2 bc b9 f7 cb bc 0a 76 9f bd
       -0.020984506 -0.02569112 -0.024898397 -0.07786186
0001e0 3c 1d e0 bd 44 d4 2b 3e 2a fa c3 3d 95 2d 29 3e
       -0.10943076 0.16780192 0.095691994 0.16521294
0001f0 18 cd 2d bd 12 c4 2e 3e d2 cb af 3d 3f 2c 69 3d
       -0.04243192 0.17066982 0.085837975 0.056926962
000200 d8 a5 73 bd ce 30 d3 bd bf 3d ae bd a3 24 8b 3d
       -0.059484333 -0.10312043 -0.08507871 0.06794097
000210 16 cd 68 bd 3c 27 c0 3c fb 21 0c 3d e1 0f 22 3c
       -0.05683621 0.023456208 0.034212094 0.009891481
000220 73 29 09 3e 06 9f 14 3e 33 92 d6 3c 9e 08 98 3d
       0.13394718 0.14513788 0.02619276 0.074235186
000230 0c af 13 3e a4 24 16 be d5 3b 28 3d 36 db 6a 3d
       0.14422244 -0.14662415 0.041072685 0.057337962
000240 74 dd 23 bd cf 9e 71 3d 36 17 6c bc bb cb 22 be
       -0.040006116 0.058989342 -0.014409831 -0.1589803
000250 5c a2 0c be 6c b2 94 3d 80 10 a1 bd 23 46 36 3d
       -0.1373381 0.07260594 -0.07864475 0.04450048
000260 f8 d9 ba bb db d4 eb bc 17 a4 cf 3c c7 14 6c 3e
       -0.0057022534 -0.02878802 0.025346799 0.23054801
000270 07 34 f3 3d f2 68 5c 3c 2f 41 27 bd 91 b5 9d 3d
       0.11875158 0.013452755 -0.04083365 0.07700647
000280 52 b8 be 3d 52 20 2c 3d 4d 44 db 3d 42 c9 73 bd
       0.093125 0.04202301 0.10706387 -0.059518106
000290 45 a4 84 3d e0 00 4f bd a3 14 aa 3d 81 a8 d2 3c
       0.064766444 -0.050537944 0.083047174 0.025715115
0002a0 b0 25 e0 bc 07 39 3d 3e 3a 92 bc bc bd f8 45 3e
       -0.02736172 0.18478785 -0.023018945 0.19333167
0002b0 9d 27 b4 3d 35 53 5a be bc d7 37 3c 10 54 68 bd
       0.08796618 -0.21320803 0.011220869 -0.056720793
0002c0 4c 48 1c 3d 86 09 38 bd bc 5b 02 3e dc d9 d9 bd
       0.038154885 -0.044930957 0.12730306 -0.106372565
0002d0 02 13 0c 3d 27 d5 05 3e 4a 72 5c bc 01 df e6 3d
       0.034197815 0.13069592 -0.013454983 0.11273003
0002e0 8a f4 8a 3d fa 67 3f 3c 0f d1 03 3d 15 b0 a0 bc
       0.067849234 0.011682505 0.032181796 -0.019615212
0002f0 9c 83 c5 bd f6 9d 06 be 7d dd 9f bd 7b 2c c1 bc
       -0.09644243 -0.13146195 -0.078059174 -0.02358078
000300 cd 6d 9e bc be c8 d9 bd 89 bc af 3d 61 52 6e 3d
       -0.019339466 -0.10633992 0.08580882 0.05818403
000310 02 92 13 3e f9 7d d6 3c 77 71 d1 3b 53 e9 4c 3d
       0.14411166 0.026183115 0.0063917 0.050027203
000320 ec 96 8a 3d d7 7c 42 be 42 fa 8e bd bc eb ef bc
       0.06767067 -0.18992935 -0.06981327 -0.029287212
000330 44 ac 8b be 30 2e e7 bb d1 f3 76 bc 17 94 20 bd
       -0.27279866 -0.0070550665 -0.015072779 -0.03920373
000340 84 65 0c 3e 83 98 3b 3d 5a e4 a6 3d 4e 7a 22 3e
       0.137106 0.045799743 0.08149023 0.15866968
000350 67 2c 41 bc a7 82 43 be a8 13 92 3d ec eb 85 bc
       -0.0117903715 -0.19092809 0.071326554 -0.016347848
000360 3b 6e ff bc b0 b8 d5 3d 78 73 3a bd 65 59 85 3c
       -0.031180492 0.10435617 -0.045520276 0.016277978
000370 7b 1f 15 3d 31 e5 60 bd 06 05 ef bb d9 74 06 3e
       0.036406975 -0.054906074 -0.0072943 0.13130511
000380 3e 64 ac 3d 88 67 92 3d 52 1c 90 3d ae 5c 06 bc
       0.08417557 0.07148653 0.07036652 -0.0082008075
000390 42 e7 7e bd 5e bf 26 bd f3 2e 01 be 2f 16 84 3d
       -0.062232263 -0.040709846 -0.12615566 0.06449544
0003a0 76 25 17 be 05 1c 96 bd c9 0c 6c 3c 0c 76 d3 3d
       -0.14760384 -0.07329563 0.014407345 0.1032525
0003b0 c2 4e a5 3d 9d 87 0e 3e 0e 59 93 bd fe 27 83 bc
       0.080716625 0.1391892 -0.0719472 -0.01601028
0003c0 8c ad ff 3d 12 71 c7 bd 4f c4 f5 bc 6c 33 1b 3e
       0.12484273 -0.09738363 -0.030000834 0.15156335
0003d0 e4 dc d9 bc f2 88 35 3e c2 1b 96 bc 0c 9a 1b 3d
       -0.026594587 0.17728022 -0.018323783 0.037988707
0003e0 64 65 d2 bd 17 a9 70 bd b5 a8 ac bd a6 27 ef bc
       -0.10273245 -0.058755007 -0.08430616 -0.02919371
0003f0 b0 a1 e5 3d 84 0f e4 3d ea 76 67 3d 4d e9 77 3d
       0.1121248 0.11135772 0.05650989 0.060525227

rnn.bias_ih_l0 f4 [300]
000000 ac 8d c4 3d 16 39 c6 bd ff 9b 02 3d ac f0 92 bd
       0.09597334 -0.09678857 0.03188705 -0.07174811
000010 88 c5 d4 3d 99 55 4c 3e fb c9 b3 3d 29 eb c5 3d
       0.103892386 0.19954528 0.08778759 0.09663994
000020 0c ac 15 bc 8e 22 7a 3b 69 3b 26 3d bb 5f b6 bc
       -0.009135257 0.003816757 0.040584 -0.022262445
000030 60 3f c5 3c 9a 27 fc bd 64 f1 3d 3c 74 d4 f7 3b
       0.024078071 -0.12312241 0.011593197 0.007563168
000040 50 57 84 bd cd c7 d8 3d 0f 05 18 3c 89 d1 07 3e
       -0.06461966 0.10584984 0.00927855 0.13263525
000050 3c ec 11 bd 60 10 7f bd 20 17 11 3c da 68 8d 3c
       -0.03562568 -0.062271476 0.008855611 0.017261911
000060 2b 0f 60 3c 4a 17 a7 bd ea b1 9f 3d 41 24 ae 3d
       0.013675491 -0.08158739 0.07797606 0.08503009
000070 36 9b 99 bd c1 64 92 3c a7 66 aa 3d be 42 78 3d
       -0.07500307 0.017870309 0.08320361 0.060610525
000080 f2 64 59 3c 7c 3b 40 be 7f 5a 9f 3d 43 51 ee bc
       0.013268696 -0.18772691 0.07780933 -0.029091483
000090 0d bf 48 3d 58 f0 f9 3d 62 01 ab 3d 53 95 89 3c
       0.049010325 0.12204045 0.08349873 0.016794836
0000a0 47 1d 7d 3c 78 56 94 bd f2 45 c2 bd 78 4b 55 3d
       0.015448875 -0.07243055 -0.09485997 0.052073926
0000b0 9d c5 a1 bd 7f 6d 85 bd 1e 0f c9 3d a9 62 cd 3d
       -0.0789902 -0.06515025 0.098173365 0.100285836
0000c0 07 d0 ca 3c c7 ac 0e be 1a 8a 00 be 2b 20 83 3d
       0.024757398 -0.13933097 -0.12552682 0.0640262
0000d0 d6 d8 8a bd a0 bf 7d b8 fd cb 02 3d 34 a3 77 bd
       -0.067796394 -6.0498365e-05 0.03193282 -0.060458377
0000e0 ab c0 02 be 3c bf 45 3c ca 8d 9e bd d6 54 03 3c
       -0.1276881 0.01206952 -0.07741888 0.008015832
0000f0 40 6c 8e bd 76 a0 1d bc 92 f6 5c bd 0b 86 0c be
       -0.06954241 -0.009620776 -0.053946085 -0.13723008
000100 f2 14 44 3d da ff 7f bd 07 c7 82 bd 9c c5 eb 3d
       0.047871538 -0.06249986 -0.06385618 0.115123
000110 4b da 57 bc ab b9 ba bd ba c2 05 3d 54 97 39 3c
       -0.013174604 -0.091174446 0.03265641 0.011327583
000120 1b 51 a7 bd cb 07 8f 3d 81 bb c4 bd d5 17 51 3d
       -0.081697665 0.06983908 -0.09606076 0.05104812
000130 60 12 81 3d 10 15 1e be 5a 58 31 bd 58 12 7f bd
       0.06302333 -0.15437722 -0.04329715 -0.062273353
000140 4c 16 fd bd 07 ab 70 3c de 9e 82 bc f4 73 3c bd
       -0.123577684 0.014689214 -0.015944894 -0.04600902
000150 ab a5 bb 3d cf 02 8e bb 35 a1 23 bd 9c a1 39 3c
       0.09162458 -0.004333831 -0.03994866 0.011330035
000160 6a 2e 6a 3d f7 e7 3d 3e 97 5b cd bb ef 0d 07 3e
       0.05717317 0.18545519 -0.006267022 0.13188909
000170 77 5f 99 bd 51 12 49 3d 2a 58 ff bb 85 09 f8 bd
       -0.074889116 0.049089734 -0.0077924924 -0.12111191
000180 cd 1f af bc 74 f6 bc bd a5 84 63 3e 1a 32 15 3d
       -0.021377468 -0.09226695 0.22218569 0.036424734
000190 50 b6 8e bd 81 46 4a bc fb 12 8c 3e 39 de 29 3e
       -0.06968367 -0.012345911 0.2735823 0.16588677
0001a0 5b 09 02 be 36 68 45 3b 39 35 04 bd e2 0e 44 bd
       -0.12698881 0.003012193 -0.03227732 -0.047865756
0001b0 68 24 36 3e 70 69 b8 3c 48 85 13 3e ac 08 e8 3c
       0.17787325 0.022511214 0.14406312 0.028324448
0001c0 0a b1 66 bd 74 6f 47 be 4f 54 20 3c f9 17 8b bc
       -0.05632118 -0.1947611 0.009785726 -0.016979204
0001d0 aa 00 71 3d 1a c9 38 3d 01 05 6b 3e b5 96 65 3d
       0.058838524 0.04511366 0.22951128 0.05605193
0001e0 bc 2c 38 3e 0d f6 9b 3d b2 d3 85 3e 70 9c a9 bc
       0.17985815 0.0761529 0.26138073 -0.020704478
0001f0 89 df 0e bd 4a 59 5c bc 16 7d 4a bc 8a 0c 7a 3d
       -0.03488115 -0.013449023 -0.012358924 0.061047114
000200 46 4b 40 3d 33 3e d1 bd 52 72 69 3c 6b 52 12 3d
       0.046946786 -0.10216942 0.0142484475 0.03572313
000210 2e 68 f4 bd 99 c6 f1 bd b5 f7 32 3d bf 78 ea 3d
       -0.11933933 -0.118054576 0.043693263 0.11448812
000220 14 d9 df bc 34 74 ff 3b f8 ae 5a 3d b1 3f 19 3e
       -0.02732519 0.007795835 0.05338952 0.14965703
000230 3a b5 48 be 36 99 08 bd 0d ac 22 be 31 e2 d0 3c
       -0.19600382 -0.03334924 -0.15885945 0.025498481
000240 4e 9d c4 3d e7 e3 1d be 7e 95 56 bb 35 fd 4f 3e
       0.09600316 -0.15418969 -0.0032742913 0.20311435
000250 d6 2e 45 be aa bb 6d 3e f4 8c 87 3e 32 ae 9f bb
       -0.19256148 0.2321612 0.26474726 -0.0048730606
000260 46 54 19 be a1 2e 77 be 95 fb 0c 3e f5 ab 1b be
       -0.14973554 -0.24138881 0.13767846 -0.15202315
000270 d8 64 a2 3c 67 a0 a5 3d ca a5 c2 bd 6f fe 45 3e
       0.019823477 0.08087235 -0.09504278 0.1933534
000280 16 c8 8e 3d c0 a7 66 3c d4 af 1f bc 7e 0a 27 3e
       0.06971757 0.014078081 -0.009746511 0.16312596
000290 ca ed b9 3c bd 1d 6c 3e 0b fb cc 3c 61 49 87 bd
       0.022696394 0.23058219 0.02502205 -0.06605793
0002a0 9c 80 3f bd c3 6f 08 be 75 d7 7b 3c 5e 98 e2 3d
       -0.04675351 -0.13323884 0.015371193 0.11064218
0002b0 85 9e a5 bd 69 1f db 3d 14 e0 09 be fc cf 2f bd
       -0.08086876 0.106993504 -0.13464385 -0.04292296
0002c0 f2 fc 08 bd 5a 12 14 bd 23 72 27 be 0e 4e 10 3d
       -0.033444352 -0.036150314 -0.16352133 0.03523069
0002d0 50 a9 41 3c 12 20 d1 bd 68 be 3b ba 6a 92 8e ba
       0.011820152 -0.10211195 -0.00071618566 -0.0010877375
0002e0 42 0b a7 ba bd b9 88 bd d3 ba d6 bb c3 f1 ea 3d
       -0.0012744444 -0.06676052 -0.006553033 0.11471894
0002f0 d5 9b 2e bc dc 3c d0 bd ea f4 4e be c5 79 a7 bc
       -0.01065727 -0.10167858 -0.20210615 -0.020443806
000300 36 36 73 be 11 4e 57 bd 42 ad 46 3d 82 d0 74 3e
       -0.23751149 -0.052564684 0.048505075 0.23907664
000310 63 90 f2 3d 60 3c c8 3d 3a b2 bf 3d 00 b4 bb bc
       0.11843946 0.097771406 0.09360166 -0.02291298
000320 99 43 81 3d 94 fe 9e 3d aa 65 7c 3d 73 dc 56 bd
       0.06311721 0.07763401 0.061620392 -0.05245633
000330 fd ac 34 3e 43 38 4e 3d ed 25 85 bc ef c8 00 3c
       0.17644115 0.050346624 -0.016253436 0.007860406
000340 4d e6 6a 3d 07 ad 92 bc 71 46 b6 3d f1 22 c1 3b
       0.05734854 -0.017904771 0.089001544 0.005894058
000350 f0 b1 04 be bb cd 25 3d 36 31 29 bd 94 5e d7 bd
       -0.12958503 0.040479403 -0.041306697 -0.10516086
000360 b4 cb f0 bc 54 9c 96 3c d8 5b 95 3d 7e 8d 5d 3d
       -0.029394008 0.01838509 0.072929084 0.054090016
000370 65 a7 1c 3e da 9a 59 bd 76 30 8a 3d 33 01 fd bd
       0.15298231 -0.053126194 0.067475244 -0.12353744
000380 4d 66 9a 3c 3f 09 47 bd fb 5b 7a bc c8 45 64 3c
       0.018847609 -0.048592802 -0.015280719 0.013932653
000390 c7 67 b9 3d 6b 3b a6 3d 8f 03 00 be 26 c0 2e be
       0.09052997 0.08116802 -0.12501357 -0.17065486
0003a0 c6 41 94 3d 1c bc 1b 3b b7 d0 32 3d f3 97 5c 3d
       0.07239108 0.0023763245 0.043656077 0.053855848
0003b0 24 0a a0 bd 19 6d c9 bd 13 4c 0b bd ee ea 21 bd
       -0.07814434 -0.09835262 -0.034008097 -0.039530687
0003c0 98 d0 36 3d ff 47 0f 3e 22 1d d6 3c 9f 20 48 bb
       0.044632524 0.13992308 0.026136938 -0.0030537022
0003d0 c1 d6 07 bd ca a8 91 bd 0a 73 b1 bd 1e 69 f6 3b
       -0.03316379 -0.07112272 -0.0866452 0.007519855
0003e0 79 ca 13 3d 76 57 ca bc 07 e3 56 3d 4e 98 a6 3d
       0.036081765 -0.024699908 0.052462604 0.081345186
0003f0 41 63 a3 bd 67 02 0c bd b8 f7 2e 3d 82 00 ab bd
       -0.079779156 -0.03418198 0.04271671 -0.08349706

rnn.bias_hh_l0 f4 [300]
000000 e4 23 15 bd f2 67 a8 3c 2f f6 8a bd 17 70 d1 bd
       -0.03641118 0.020557377 -0.06785237 -0.102264576
000010 c8 e1 81 3d ae 22 51 3d eb ea b4 3c 9f 70 94 bd
       0.063418925 0.051058464 0.022084674 -0.07248043
000020 9d 06 e1 bc f1 df d1 bc fe 94 0e 3e 98 a6 a3 bc
       -0.027468974 -0.025619479 0.13924024 -0.019976899
000030 2d d7 85 3d 11 ba 11 be 11 d4 df bd a8 0c 13 3d
       0.06535182 -0.14231135 -0.1092912 0.03590074
000040 fb 40 84 bc bd 06 70 3d 67 57 60 bd 1f c6 fc 3d
       -0.016144266 0.058600176 -0.054770853 0.12342476
000050 dd d9 93 3a 7f e8 74 bd 95 10 2b 3c f3 e5 1f bd
       0.0011280138 -0.059792038 0.010440965 -0.039037656
000060 5b 17 1a bd d8 eb 79 3c fb 35 24 3d 89 5c 53 bd
       -0.03761993 0.015253983 0.040090542 -0.05160192
000070 e4 86 9d 3d e4 f9 a0 3b e5 68 8a 3d c7 53 6c bd
       0.07691744 0.004912602 0.06758288 -0.057697084
000080 45 47 6f 3d 50 d0 b6 bd b6 80 ab bc 59 95 9a bd
       0.058417577 -0.08926451 -0.020935398 -0.07548017
000090 92 77 74 3d 76 30 0d 3e 70 3a b9 3c 34 8b cf 3c
       0.059684344 0.13788018 0.022610873 0.025334932
0000a0 8d 94 f5 bd dd e3 b0 bd 14 fb 65 3d e0 95 8e 3d
       -0.119912244 -0.086372115 0.05614765 0.0696218
0000b0 2c 74 0d be ee 2f a2 3d 18 24 b3 3d 15 2d 0b 3c
       -0.13813847 0.07919298 0.08747119 0.008494635
0000c0 3e 18 98 3d 65 5d 24 bc 27 18 1f be ed 8f 8c bc
       0.07426499 -0.010032033 -0.15536557 -0.017158473
0000d0 2b 1e 92 3d 76 88 bd 3d 47 22 4f bd 8a 2b 11 be
       0.0713466 0.092545435 -0.0505698 -0.14176765
0000e0 7b 70 62 bd 44 f7 3a 3e 89 92 a5 bc c3 ff ab bc
       -0.05528305 0.18258387 -0.020211475 -0.02099598
0000f0 0f e4 87 3d 8c 11 03 ba 0b 1f c4 bd d0 aa b5 bd
       0.066352956 -0.0004999868 -0.095762335 -0.088704705
000100 2e 1e bc 3c e3 6e 41 3b a5 93 94 bc 70 68 57 bd
       0.02296361 0.0029515557 -0.018136809 -0.052589834
000110 89 de 77 bd d5 26 e6 3c 5a cb 12 3d e8 69 93 bc
       -0.06051496 0.028094688 0.035838462 -0.017994836
000120 8c 1f 93 bd 04 60 66 3d cc 11 21 3d 3a 34 e1 bd
       -0.071837515 0.05624391 0.039323613 -0.109962896
000130 35 0d 72 3c 06 91 5d bd 29 c8 ac bd 07 2c 2d bd
       0.014773657 -0.054093383 -0.08436615 -0.042278316
000140 f4 6a 14 bd e6 61 25 3c 51 c8 22 bd b1 64 5e bc
       -0.03623481 0.010094142 -0.039741818 -0.013573811
000150 ed 70 98 3d e6 38 39 bd 2f 5c 69 3d b9 cd 47 bc
       0.07443414 -0.04522028 0.05697268 -0.012195044
000160 f5 dc 54 3c 75 e0 12 3e db be d5 bd f7 ee 2a 3d
       0.012992133 0.14343436 -0.104367934 0.0417318
000170 cb 93 e5 3d 51 56 42 3d 2d a4 16 3e 04 7f 28 be
       0.1120983 0.0474456 0.14711066 -0.16454703
000180 47 27 a4 3b 1a b8 eb bd c1 db 82 3e c6 4d ae b9
       0.005009565 -0.11509724 0.25558284 -0.00033245812
000190 d7 a8 3d bc b3 21 65 3d d6 4c 79 3e 39 af de 3d
       -0.011575899 0.05594034 0.24345717 0.10873265
0001a0 a9 9a 4f 3c e2 c1 25 3d 4a 7f cd 3d 4b b4 5f 3c
       0.012671151 0.040468104 0.10034044 0.013653825
0001b0 22 41 af 3a 50 cd 24 3c 42 99 22 3b 6f 8a 89 3d
       0.0013370852 0.010058716 0.0024810587 0.06715857
0001c0 bf 6c c4 bd 5a fc 4d be 0c 33 99 bd 28 c0 67 3b
       -0.09591054 -0.20115796 -0.074804395 0.0035362337
0001d0 2c 76 3d 3d 2e fd 87 3d 22 28 48 3e 27 dd 49 bd
       0.046255276 0.06640087 0.1954656 -0.049283173
0001e0 90 a9 63 3e 7d 65 b5 bd 7f 2b 5a 3e 44 5a 5b 3d
       0.22232652 -0.08857248 0.21305655 0.05355288
0001f0 9e 37 f5 3b 0c 1d 82 bc cd 82 e6 3c e7 d0 5b 3d
       0.0074834367 -0.015882991 0.028138543 0.05366602
000200 40 79 18 3d 13 af bf bd 15 c2 06 3b e3 3c a0 bc
       0.037225008 -0.09359565 0.002056246 -0.019560283
000210 3a 84 8f bb eb 6a b6 bd 80 fa db bd 32 cb 21 3e
       -0.0043797763 -0.08907112 -0.107411385 0.15800169
000220 82 ea 54 3b 09 a2 09 3c 9a 65 18 3e 5a a2 20 3e
       0.003248841 0.008400449 0.14882508 0.15686932
000230 cc 92 5b be 5c 46 99 bc e6 ea 5e be 90 d6 a8 3d
       -0.21442717 -0.018710308 -0.21769294 0.082440495
000240 e9 ac ce bc 1b 49 86 bc 25 f0 15 be b2 64 69 3e
       -0.025228934 -0.016392281 -0.14642389 0.22792318
000250 4a 08 7c be 43 b5 8b 3e 56 34 0a 3e 56 5c ef bd
       -0.24612537 0.2728673 0.13496527 -0.116875336
000260 b5 ee 09 be 2f 46 2b be 2c 40 a4 3c fb ab 9a 3c
       -0.13469966 -0.16725992 0.02005013 0.018880835
000270 00 0f da 3d 7c 9b 1f 3d 03 c9 85 be 3b d8 c1 3d
       0.10647392 0.03896664 -0.26129922 0.09465071
000280 b1 f1 9e 3c 19 f9 48 bd 00 b9 26 bc 48 ec 93 3c
       0.019402357 -0.049065683 -0.010175943 0.018057004
000290 9c 25 02 bb ac 59 5e 3e 02 bf 2f bb b0 11 6e bd
       -0.0019858843 0.21713895 -0.002681673 -0.058122337
0002a0 63 87 d9 bd 74 d7 46 be 73 0d 92 3d 26 65 23 3d
       -0.10621526 -0.19418126 0.071314715 0.039891385
0002b0 b3 d2 05 be 2a b1 1c 3e 78 51 b4 bd c0 f4 10 bd
       -0.13068657 0.15301958 -0.088046014 -0.03538966
0002c0 93 d5 fa bd 5f 88 74 3d 2c f3 dd bd ef 65 e0 3c
       -0.12247767 0.059700366 -0.10837397 0.027392356
0002d0 b6 97 e8 3c 4b 4a bc bd f5 29 e3 3d fd f1 73 bd
       0.028392654 -0.09193858 0.11091987 -0.05955695
0002e0 ea 7a c8 bd a7 2c 85 bb 9e 07 3a bd 3f 8f 7e 3e
       -0.09789069 -0.004064161 -0.04541742 0.24859332
0002f0 d1 65 66 bc d6 88 0f be 01 ad 11 be 65 72 44 3d
       -0.014062361 -0.14017043 -0.14226152 0.047960658
000300 6d ff 22 be 09 4b 8f bd 4e 39 a2 3d 38 3f 1d 3e
       -0.1591775 -0.06996734 0.07921086 0.15356147
000310 61 ac 06 3d 4c e3 c1 3d 3d b7 b5 3c 44 fa 59 3d
       0.032879237 0.094671816 0.022182101 0.053217188
000320 13 0d 9e 3d 77 e3 8d bd c3 c1 5c 3d 8e 3d 94 3d
       0.077173375 -0.06928151 0.053895723 0.07238303
000330 df c7 36 3e d1 a4 fb 39 1b d6 0c be d7 a7 1d 3d
       0.17849682 0.00047997248 -0.1375355 0.038490143
000340 21 3c 8b 3d 6c 99 25 bc 18 07 48 bd 62 4f fa bc
       0.06798578 -0.010107379 -0.04883489 -0.03055543
000350 f1 fa 00 3d 58 24 87 3d 07 0f b1 bd 11 05 65 bd
       0.031489316 0.06598729 -0.08645444 -0.055913035
000360 d4 d9 a1 bd 60 c7 ae 3b e3 bf 19 3e 92 4d 76 bc
       -0.079028755 0.005333826 0.15014605 -0.015033143
000370 3d 18 94 bc 58 81 05 bd e2 52 b1 bd 2e ea ec bd
       -0.018077964 -0.032594055 -0.08658387 -0.11568104
000380 59 56 3b bd 74 b3 94 3d cb 2d fe 3d 8e 95 d6 3c
       -0.045736644 0.072607905 0.12411078 0.02619436
000390 1c 54 3d ba 65 0b 0e 3d e8 ae 01 3b aa 3c 24 be
       -0.0007222311 0.034678835 0.001978809 -0.16038767
0003a0 08 00 3c 3d 03 44 8b bd fd 4e cf 3b 5b c2 ba bd
       0.045898467 -0.068000816 0.006326555 -0.091191016
0003b0 20 30 c8 3b 9a e7 8e bd fc ce f8 bc 1b fc 9c 3c
       0.0061092526 -0.06977768 -0.030372135 0.019163182
0003c0 83 62 e8 bc 94 a3 df 3c 8b d2 77 3d 2e e0 05 bd
       -0.028367287 0.02729968 0.060503524 -0.032684498
0003d0 1f 26 f3 3c 8a 11 6a 3d 6f 68 e3 bd f2 3a ae bc
       0.029681263 0.057145633 -0.111039035 -0.021268342
0003e0 13 47 5d bd 1d 73 ca 3c 43 d1 cd bc 6d a8 83 bd
       -0.05402286 0.024713093 -0.025124198 -0.06428609
0003f0 77 48 1b bd 61 0b 99 3d 29 7f 50 3d 75 00 53 bd
       -0.037910905 0.074728735 0.05090252 -0.051514108

rnn.weight_ih_l1 f4 [300, 100]
000000 8d 3e 50 3d 06 ec 83 3d f4 02 0c be d6 ab 33 bd
       0.050840903 0.06441502 -0.13673002 -0.043865047
000010 45 85 ff 3e 2a e1 8d 3d b7 e4 8b be b2 a8 14 3e
       0.49906364 0.06927712 -0.27322933 0.14517477
000020 48 8f 0e 3e 10 b8 29 3d 3e 71 94 3c e6 e3 84 3c
       0.13921845 0.0414353 0.018120404 0.016221952
000030 48 55 a3 bb 72 5e f5 3d 83 4d 6f 3d 7d b9 43 bc
       -0.0049845316 0.11980905 0.05842353 -0.011946079
000040 50 b8 79 3e f3 d9 89 be d9 36 95 be 3f 1e 30 3d
       0.24386716 -0.26924095 -0.29143408 0.042997595
000050 c9 3b fc bd 53 51 a9 be d4 a3 9b 3d b2 5a ad bd
       -0.123160906 -0.33069858 0.07599607 -0.084645644
000060 ac 18 3c 3e 08 6b e6 3d a9 b2 06 3e 97 6f 17 be
       0.18368787 0.11250883 0.13154091 -0.14788662
000070 f7 6c 62 be bc be 35 bd e1 2a 50 3e ac 17 d7 3d
       -0.2211188 -0.04437135 0.20328857 0.10502562
000080 17 cf c5 bd fc 8d 25 be 6a 9d 98 3e bb 57 08 3e
       -0.0965864 -0.16167444 0.29807597 0.13314717
000090 2b 29 de bd 18 19 3f bd 9f a4 53 bc 82 44 fa 3d
       -0.10847696 -0.04665479 -0.012917667 0.12220098
0000a0 c3 72 4d be d8 cf 11 3e 96 79 b6 bc da 36 99 3b
       -0.2006331 0.14239442 -0.022274774 0.0046757283
0000b0 6b f2 08 3e 71 7c 5d 3d 31 5d 93 bd d6 8d aa 3d
       0.13373725 0.054073755 -0.07195509 0.08327834
0000c0 88 98 85 3e cc 29 23 3e 43 fc d2 3d c6 40 05 3e
       0.26092935 0.15933913 0.10302021 0.1301299
0000d0 50 88 cb 3d 5b 14 f6 bd a4 88 2b 3d 2d 67 21 be
       0.09938109 -0.12015601 0.041878358 -0.15762015
0000e0 9f 5b 66 bb 6a aa 3a bd dd ed a3 bb 85 b9 04 bd
       -0.0035149825 -0.045572676 -0.0050027207 -0.032403488
0000f0 b2 c4 de 3d b2 b5 de 3d ff cd 62 be 34 1e 43 bd
       0.108773604 0.108744994 -0.22148894 -0.047636226
000100 1e af ed 3d 7c 47 73 3d d8 9f 8a 3d 82 a6 9c be
       0.116056666 0.059394345 0.06768769 -0.30595785
000110 49 7c 47 be e1 cf d0 3c 30 e0 b9 3d c5 06 4e 3d
       -0.19481005 0.02548975 0.090759635 0.050299425
000120 46 cf df bb ec b9 71 3c c8 20 75 be a8 dd 13 3d
       -0.006830129 0.0147538 -0.23938286 0.03610006
000130 79 a8 8f be 71 8d 45 3e bb 82 93 bd 61 9c 10 3b
       -0.28058222 0.19292237 -0.07202669 0.0022065865
000140 7a 6a e2 bd 0a c4 d1 bd f0 96 1c bd f3 21 c3 be
       -0.11055465 -0.102424696 -0.038229883 -0.3811184
000150 af a9 aa 3b 29 ce c0 bd 28 3f dd 3d 43 72 ca bc
       0.005208216 -0.09414322 0.10803062 -0.024712687
000160 ff fe 6e be 15 bd d3 3e 13 3b f8 3c fe 64 dd bd
       -0.23339461 0.41355196 0.030301606 -0.10810278
000170 63 1d 1c be 14 b6 86 bc c7 8e 06 be 26 85 24 bd
       -0.15245585 -0.016444243 -0.13140403 -0.040166043
000180 a0 4d 15 be 47 3e e5 3c d5 64 2d 3d f5 9b d2 3e
       -0.14580393 0.027983798 0.04233249 0.4113461
000190 b8 21 b9 bd e3 8d c8 bb 04 ce d1 bd b1 32 5e 3e
       -0.090396345 -0.00612043 -0.102443725 0.21699025
0001a0 13 fb 36 bc 0b 03 31 3e 9f 0b 4f 3e 8b c0 5c bc
       -0.011168259 0.17286317 0.20219277 -0.01347364
0001b0 01 7b 6e 3d 56 4a a1 be 7b 31 7e bd 14 91 8c 3c
       0.058222774 -0.31502026 -0.062058907 0.017159022
0001c0 cd f2 05 3d 74 e3 ba bd fb be 27 bc a5 18 2a bd
       0.032702256 -0.091254145 -0.010238404 -0.04152741
0001d0 74 5a 13 3e 90 2e a2 3e df 6e ce 3d 3d 1a b2 bd
       0.14389974 0.3167615 0.10079741 -0.08696411
0001e0 f2 3f 8e 3e b2 94 74 bc 95 4f 29 bd 17 82 71 bd
       0.2778316 -0.01492803 -0.04133566 -0.058961954
0001f0 ed 39 4f be 34 07 0b be d4 dc 9f bd df 65 06 be
       -0.2023694 -0.13576967 -0.078057915 -0.13124798
000200 3c b6 2a be 72 50 0c be 21 58 54 bd 1b 87 08 be
       -0.1667108 -0.13702562 -0.05184186 -0.13332789
000210 eb 14 4d 3c 4f 5f 8f 3e 7c d2 07 be cb 96 f9 3e
       0.012517194 0.28002402 -0.13263887 0.48747858
000220 81 e1 0d bd b7 5a 76 be 77 bb 67 3e 78 de 5b be
       -0.034638885 -0.24058042 0.22630106 -0.21471584
000230 e3 40 cd 3e 01 3d 52 be 78 ee 4a bd 50 49 ee 3d
       0.40088567 -0.20531084 -0.049543828 0.11635077
000240 ff 89 02 be 34 b9 71 bd a7 57 ae 3d 85 5f 53 3e
       -0.12747954 -0.059014514 0.08512812 0.20641907
000250 e3 38 58 be 00 a9 55 3e b5 e7 1d 3e af 42 d7 3c
       -0.2111545 0.2086525 0.1542042 0.026276914
000260 a8 6e 10 bd e6 fa 31 3d 1a a7 08 3d 15 d9 b3 bd
       -0.03526178 0.043452166 0.033362485 -0.087816395
000270 13 26 3a 3e 60 41 c3 3d 97 1e 88 3d 96 d5 06 be
       0.18178587 0.09533954 0.066464595 -0.13167414
000280 54 db a1 3b 22 d0 50 bd ab 95 e2 3d 53 f3 84 3d
       0.004939476 -0.05097974 0.11063703 0.06491723
000290 c8 98 5b 3d cf 7e 11 3e 49 f2 77 bd 25 48 ae bc
       0.0536125 0.1420853 -0.060533796 -0.021274636
0002a0 0b dc 26 3e a7 79 51 bd b3 b0 0f be 77 a2 93 3d
       0.16294877 -0.051141407 -0.14032249 0.07208722
0002b0 9b b0 ea bc 3b e3 76 bd 74 44 a3 3d 6f cd a8 be
       -0.028648665 -0.060275298 0.07972041 -0.32969233
0002c0 6d 2e 02 bd 24 e7 8a bd 19 b5 cc bd b6 5d 48 3d
       -0.031782556 -0.06782368 -0.09995479 0.048917495
0002d0 c4 d7 b0 3c dd 31 5c be 3b be 0e 3e 87 42 97 3d
       0.02158726 -0.21503396 0.13939755 0.07385736
0002e0 2b 53 cb bd 11 4d 33 3e 01 e6 ee be a6 5b 2e be
       -0.099279724 0.17509867 -0.46659854 -0.17027149
0002f0 5f f0 09 3e a2 8c 27 3e c7 09 2d 3e 1f cf 2c 3e
       0.134706 0.16362241 0.16898261 0.16875885
000300 bb 43 1c 3d 0c 20 27 3e 76 f8 ce bd 03 f8 3a be
       0.03815053 0.16320819 -0.10105984 -0.18258671
000310 89 55 b3 bd 60 cb 73 3e 49 3c bc bd d5 a9 37 be
       -0.08756549 0.2380805 -0.09191186 -0.1793588
000320 9c 10 3b 3d 27 45 1d 3c 4e 99 d4 bd 27 ca 6a bd
       0.045670137 0.009599007 -0.10380803 -0.057321694
000330 e2 4d 5e bd 73 82 46 3e 36 54 0f bd 07 8b 41 bd
       -0.054273494 0.193857 -0.03499242 -0.047251727
000340 53 93 00 3e 1f 7b 8c bc 8d 2d 1e 3e 10 8d db 3d
       0.125562 -0.017148552 0.15447064 0.10720265
000350 c6 03 de bd 7f c8 10 be 4b ea 5c 3d 1a 1e 98 be
       -0.108405635 -0.14138983 0.053934377 -0.29710466
000360 7a 7c ab 3c 1d 69 05 3e 92 51 39 bc 88 18 48 3d
       0.020933378 0.13028379 -0.011310952 0.04885152
000370 22 45 ac bd 04 40 04 bd a6 5e 04 bd cc 05 47 3d
       -0.084116235 -0.032287613 -0.032316826 0.048589513
000380 44 a5 c6 3c ba 77 83 3d ea a7 32 3e b5 fa 7f bd
       0.024248727 0.064193204 0.17446867 -0.062494952
000390 df 8f 68 bd 6e 7c 0b be 84 37 4d bd c9 bd 68 bd
       -0.05677783 -0.13621685 -0.050101772 -0.05682162
0003a0 4b db 14 bc 03 71 4a 3d ca 61 14 be da 05 e7 3c
       -0.009085487 0.049424183 -0.14490429 0.028201032
0003b0 f2 4a ff 3d 84 d6 27 3d 5f 6e c7 3d 90 d8 7e be
       0.124654666 0.040976062 0.097378485 -0.248873
0003c0 6d 9a 07 3d 53 85 26 3e 17 f3 8c 3d 37 92 02 3e
       0.033106256 0.16261797 0.06882303 0.12751089
0003d0 82 e1 d0 3d f2 c2 8f 3d 9c 79 1d 3c 3a f0 0e 3d
       0.10199262 0.07019605 0.009611513 0.034897067
0003e0 b8 dc 64 bd 24 a1 3d 3e 91 c7 0a 3e 88 4a 41 3d
       -0.055874556 0.18518502 0.13552691 0.04719022
0003f0 af 4b 1e 3e 24 35 f9 bc b1 69 1b 3e 4b ee a2 bd
       0.15458558 -0.030420847 0.15177037 -0.07955607

rnn.weight_hh_l1 f4 [300, 100]
000000 4d f8 7c be ca 73 1c 3d 80 2d 53 bd 1c d8 67 3d
       -0.24704094 0.038196363 -0.051557064 0.056602582
000010 10 b9 93 bc 42 64 ff 3b b3 32 ae 3c 64 c0 88 3d
       -0.01803258 0.007793934 0.02126441 0.066773206
000020 b2 90 23 3d 8a 55 83 bd f9 6d a2 bb d1 e0 eb bc
       0.039932914 -0.064128 -0.0049569574 -0.028793724
000030 41 41 05 be 7e b6 46 3b 62 ce 2c 3e 33 e8 62 bd
       -0.13013174 0.0030321176 0.16875604 -0.055397224
000040 7a f2 02 bd de 12 fe 3d 80 90 1d 3e 32 d1 92 bd
       -0.031969525 0.124059424 0.15387154 -0.07168807
000050 1e 9b 86 3c eb 56 26 3e 23 b8 c3 3d 05 47 93 bd
       0.016431388 0.16244094 0.09556606 -0.0719128
000060 b0 a4 eb 3d e8 0e ed 3d 29 7d 2d bd ad 58 fa bd
       0.11506021 0.11575109 -0.04235569 -0.12223945
000070 9a 49 c5 bd b5 7e 3b 3e e1 44 21 3d a3 ab b0 bc
       -0.09633179 0.18310054 0.03937233 -0.021566218
000080 d3 53 e5 bc 2f 19 b4 bb 4f 2d f8 bc 2c 12 40 bd
       -0.027994072 -0.005496166 -0.030295042 -0.04689233
000090 c0 65 1a 3e bd db 57 3d a1 66 3c 3e a1 a3 5c be
       0.15077877 0.052699793 0.18398525 -0.21546794
0000a0 ef 77 ed 3d 66 f9 8f 3c 1a b9 41 bd 57 39 0d 3e
       0.11595141 0.017574977 -0.047295667 0.13791405
0000b0 ff 0b 29 be b4 bc 5f 3d bb d9 b6 3b 95 e5 48 be
       -0.16508482 0.05462332 0.0055801547 -0.19618829
0000c0 39 91 28 3d ca 15 b3 bd 5b ed 63 3e a0 13 80 bc
       0.04115412 -0.0874439 0.22258513 -0.015634358
0000d0 47 64 28 3e 54 07 2a 3d 8e 20 ea bd 9d a8 2b 3e
       0.16444503 0.041510895 -0.114319906 0.1676354
0000e0 8b 99 d2 bc 43 82 da bc cf 3e 5d 3c b4 58 22 bb
       -0.02570798 -0.026673442 0.013503744 -0.002477211
0000f0 4b 86 b4 3d da 10 84 bc ba 1c 65 3d 7c 8c d8 bc
       0.08814677 -0.016121317 0.0559356 -0.026434176
000100 5f 93 2f be 55 ca 86 3d 2e e3 f9 3d fe b5 ae 3c
       -0.17146061 0.065815605 0.12201534 0.021327015
000110 6b 2d af 3d 0a 06 84 bd 01 cb c6 bc 21 11 d7 3d
       0.08553585 -0.06446464 -0.024266722 0.10501314
000120 dd d0 81 3d 0a 99 2d bd 9c 49 c2 3c 65 e5 06 bc
       0.06338666 -0.042382278 0.02371674 -0.008233403
000130 f2 b2 e8 3d 25 9a a7 3d 32 c3 4d 3d 9b 9b 73 3d
       0.11362256 0.081836976 0.05023498 0.05947457
000140 44 ce 92 3b 47 75 82 3d 9c 09 1b bd 42 43 22 3e
       0.004480155 0.06370025 -0.03785096 0.1584597
000150 21 63 55 3c 16 4d da bc 46 9b 22 3d 06 6e 96 3d
       0.013024122 -0.026648086 0.03969886 0.07345204
000160 24 b5 83 bc d0 a0 14 bd 4e 7e 18 be 93 e2 03 be
       -0.016077586 -0.036286175 -0.14891931 -0.128794
000170 45 bf 44 bd b5 3b 3e 3e ae 71 97 bd 16 56 54 3d
       -0.04803397 0.18577464 -0.073947296 0.05183991
000180 f0 8b dc 3c 83 5b 8b bd 57 ae 0d 3d 4b a6 1d be
       0.026922196 -0.06804564 0.03459009 -0.15395467
000190 95 ae 8c 3d 82 b0 53 be b0 1a 34 3e 26 44 1d be
       0.068692364 -0.20672801 0.17588305 -0.15358028
0001a0 dd f6 26 bd 3d e1 50 3d d9 41 1b be 57 a0 47 bd
       -0.04076277 0.050996054 -0.15161838 -0.048736896
0001b0 c7 c6 2c 3e 0e 54 69 3e 19 9c 98 bc 8b 5b 00 3e
       0.16872703 0.2278597 -0.01862912 0.12534921
0001c0 32 b4 9b 3e 30 c2 a7 3d 6f ee 12 bd 04 ab 2f 3d
       0.30410916 0.08191335 -0.03587192 0.042887703
0001d0 d8 4e 8b bd e7 b9 9c 3d c2 05 02 3e 28 07 1b 3d
       -0.068021476 0.076526456 0.12697509 0.03784862
0001e0 a0 e8 23 3d 17 8f f1 bd f4 97 42 bd 3b ea eb 3c
       0.04001677 -0.1179487 -0.047508195 0.028798213
0001f0 6c 73 28 3e 42 d8 01 be a5 ae 33 3d 5b 75 dd 3d
       0.1645028 -0.12680152 0.043867726 0.108133994
000200 54 17 5a 3d 48 88 8e bd 46 2a 28 3d d7 45 7c bc
       0.053244904 -0.06959587 0.04105594 -0.0153975105
000210 9d 57 10 be 8f 55 91 3d fa a8 c0 3d ab 11 41 3e
       -0.14095922 0.07096397 0.0940723 0.18854396
000220 7b 15 cb 3c b2 6b e8 bd 75 f0 d3 3d c5 5a 89 bd
       0.024790516 -0.11348666 0.10348598 -0.06706766
000230 47 34 3d bd 4c b2 84 3d d6 2c af 3b 65 ea 80 bb
       -0.046192434 0.0647932 0.005345921 -0.003934192
000240 cf f7 9b bd 21 ca 68 bd cf 01 c3 3d 41 a3 de 3d
       -0.07615625 -0.05683339 0.09521829 0.10870982
000250 2f 31 36 be 83 88 b5 bd 2e 2c 21 bc db 57 87 bd
       -0.177922 -0.08863928 -0.009837193 -0.06608554
000260 d9 01 bb 3b 63 de f4 3d 3a 59 99 bb b9 7d c2 bd
       0.0057070074 0.119564794 -0.004679826 -0.09496636
000270 69 07 e2 bd 06 5a 6a 3d b0 a9 c7 3d 78 6f 65 3d
       -0.110365696 0.05721476 0.09749162 0.056014508
000280 2e 50 5f 3d e9 91 5e bd c7 38 93 bd 1d 37 b8 bd
       0.054519825 -0.05433837 -0.07188564 -0.08994887
000290 3f 09 32 bd 54 9f fe bc dd 5f 14 3e d3 17 8c bd
       -0.04346585 -0.031081833 0.14489694 -0.068404816
0002a0 0b 3d 97 bd 67 f8 bb 3c 82 2d 43 bc a7 5f a8 bd
       -0.0738469 0.022945596 -0.011912705 -0.08221369
0002b0 d6 87 a5 3d d2 42 00 be 08 32 10 3c c2 71 b7 3d
       0.08082549 -0.1252549 0.008800991 0.089572445
0002c0 ae 81 15 3d b4 2c 36 bd d1 aa 1a be 72 f5 e4 ba
       0.036500625 -0.044476226 -0.15104224 -0.0017468168
0002d0 07 fb ee 3d 87 0d 99 3d 45 b4 4f bd d9 ef 9a bd
       0.116689734 0.07473283 -0.050709028 -0.075652786
0002e0 84 45 40 3d 3c 36 30 3e 32 56 44 be da 6d 09 be
       0.046941295 0.17208189 -0.19173506 -0.13420811
0002f0 e7 56 be bd cd ae b4 bd 38 ae 01 3d 99 5c 11 3e
       -0.09293919 -0.08822403 0.03166029 0.1419548
000300 4e ae 31 3e df 03 fb bd d1 86 80 bd 91 dc 5c 3d
       0.17351648 -0.12256598 -0.06275714 0.053921286
000310 65 78 93 3e 2a f2 9b bd c6 a3 ae bc dc dd 0e 3e
       0.2880279 -0.076145485 -0.021318328 0.1395182
000320 d3 08 81 bc f1 db ae bd 6a 4b 04 3a f0 67 f7 bd
       -0.015751278 -0.08538044 0.0005046638 -0.120803714
000330 5c c0 ee 3d 60 44 b0 bd 13 75 f7 3d 16 0b ff bc
       0.116577834 -0.086067915 0.12082877 -0.031133216
000340 05 d2 8b bb 1a 24 72 3d 70 0e 64 3d 0d 62 b3 bd
       -0.0042669796 0.05911646 0.05567783 -0.08758936
000350 d0 3c 3e 3e 54 7c e4 3c 22 bd aa 3d 99 85 cc 3d
       0.18577886 0.027891316 0.083368555 0.09986419
000360 0d b4 36 be ec 58 69 bd 5c ec ab 3d 5b 6d 06 be
       -0.17842121 -0.056969568 0.08394691 -0.13127653
000370 b9 a0 ad bc e0 4a 70 be 6e 4c 95 3d 5d 9e 33 3d
       -0.021194803 -0.23466063 0.072899684 0.0438522
000380 42 a5 7c bb 6e 6d 1b 3e eb 29 99 bd 71 cc 5d be
       -0.003855065 0.15178463 -0.07478698 -0.2166002
000390 ad 0e 00 3e b6 9d da 3b a8 d9 cf 3c 13 0d 2e be
       0.12505598 0.0066716326 0.025372341 -0.16997175
0003a0 f1 96 b0 3d 13 e5 76 bd 5f 9a a0 3c cf e5 e9 3c
       0.0862254 -0.060277056 0.01960486 0.028551964
0003b0 c5 cf a2 3e de 93 1d be f9 d8 73 bd d4 fa cd 3d
       0.3179914 -0.15388438 -0.059533093 0.10057607
0003c0 11 c1 e9 3d 5f b9 16 3e c2 5e 10 3d 74 d1 a7 bd
       0.114137776 0.14719151 0.035246618 -0.08194247
0003d0 b2 2d b2 3d 63 70 b4 3d 9c ec d3 3d 3b 7d 52 bc
       0.08700122 0.088104986 0.10347864 -0.01284724
0003e0 04 e6 06 3d fe 4a 4f 3d 04 5c 28 3e 7d 3e df 3d
       0.032934204 0.050608627 0.16441351 0.109005906
0003f0 d8 7c 23 3e fc 57 d8 ba 1f d5 77 bd 5e ee 01 3e
       0.15965593 -0.0016505714 -0.060505982 0.12688586

rnn.bias_ih_l1 f4 [300]
000000 21 4e 34 bd 47 36 25 bd 00 7c 5a 3d 21 8b 52 3e
       -0.044019822 -0.040334966 0.053340912 0.20560886
000010 9e fe 75 3d ef 54 41 bd 4b 3b 38 3e 59 5f ab bd
       0.060057275 -0.04720014 0.17991368 -0.083677955
000020 f1 fd 50 3e a3 aa 7a 3d 55 26 ef 3c e9 c7 61 3d
       0.20409371 0.061197888 0.029193083 0.05512229
000030 fd 71 8a 3d 7b ce a1 3d c2 10 80 3d 66 9a e1 3d
       0.06760023 0.07900711 0.06253196 0.11015777
000040 35 49 80 3d 06 cb 00 3e 5d 53 2a 3d 59 6a 66 3d
       0.06263963 0.12577447 0.041583408 0.056253765
000050 72 ff 9b bd 0e 31 8c 3a dd 29 11 3e 02 6c 19 3e
       -0.07617082 0.0010695772 0.14176126 0.14982608
000060 62 73 ab 3d ed 8a b0 3d ee b5 cc bd 59 c6 8a 3d
       0.08371617 0.08620248 -0.09995638 0.06776113
000070 3f 2b ba 3d f2 94 ec bd a0 59 fd 3d ef f7 5d 3e
       0.0909028 -0.115518466 0.1237061 0.2167661
000080 83 03 f5 bd f3 64 8b 3d e8 85 57 3e 24 e8 01 3e
       -0.119635604 0.06806364 0.21047175 0.12686211
000090 41 a1 ab b9 45 88 02 bc b8 e8 a6 bd 9a 36 75 3d
       -0.00032735805 -0.0079670595 -0.08149856 0.059866525
0000a0 99 38 08 3e f7 e0 fe bc e1 a9 de 3d 01 1e 81 3d
       0.1330284 -0.031113131 0.108722456 0.06304551
0000b0 1a 84 1b 3d 55 f1 82 bd dc 7f dc 3d cf e5 d5 3d
       0.03796778 -0.06393687 0.10766575 0.10444223
0000c0 20 9b 37 3d 57 5c 2f bd 5b 36 dd 3d f4 26 2c 3e
       0.044825673 -0.04281267 0.10801383 0.16811734
0000d0 3a 47 c6 3d ea d2 8e 3d 42 4f 8b 3e b1 46 3d 3e
       0.09681554 0.069738224 0.27208906 0.18483998
0000e0 1b c3 5c 3d 4e fe 41 3d f3 04 e0 3d 35 3d 0d 3e
       0.053897005 0.047361664 0.10938444 0.1379288
0000f0 bf ae f2 bc 92 e9 a6 3d 7f f1 da 3d 89 b3 be 3c
       -0.029624341 0.08150019 0.10690593 0.023278968
000100 55 f7 9e bd 63 d1 4e 3e a4 ec f7 bc 5f cb 0e 3d
       -0.077620186 0.20197062 -0.030264206 0.03486192
000110 37 34 3c 3e 80 a5 db 3d 6b 76 fc 3d 46 4e d2 3c
       0.18379293 0.10724926 0.12327274 0.02567209
000120 5f f0 97 3c 3f 6b b6 bb 24 b3 08 3d 72 95 5a bd
       0.018547235 -0.005566984 0.033373967 -0.05336518
000130 1e 52 04 3e db 3d 9b 3d e3 f6 87 bc 1d 97 6e 3d
       0.1292195 0.07580157 -0.016597217 0.05824958
000140 bb 72 c4 3d eb 47 05 3e ef 2f 98 3d f5 24 c3 3c
       0.095921956 0.13015716 0.074310176 0.023821333
000150 a3 82 11 3e 17 17 37 bd 77 0a 10 be 61 73 6a bd
       0.1420999 -0.044699755 -0.14066492 -0.05723894
000160 d2 5b b8 3d 16 65 07 3d b8 ec d3 3d 83 6b 87 3d
       0.09001888 0.033055387 0.10347885 0.06612303
000170 13 f5 9d 3d 27 34 39 3e b9 8b 8f 3e e8 de 5b bd
       0.0771276 0.18086301 0.28036287 -0.053679377
000180 9c dc 1d 3e 66 b3 17 3e c4 ba 04 3e 96 a2 60 bd
       0.15416187 0.14814529 0.1296187 -0.054842554
000190 9e 36 f0 bd 28 8a 46 3d c5 56 8f 3c a7 d3 a8 3d
       -0.117291674 0.0484716 0.01749743 0.082434945
0001a0 ea e5 c7 bc 39 cb 20 3e 55 7b 35 3e f7 23 be 3d
       -0.024401624 0.15702523 0.17722829 0.092842035
0001b0 8e 0c 5e bd 97 6f 72 bd 96 1b 8f 3d 71 b4 40 3e
       -0.05421119 -0.05918845 0.069876835 0.18818833
0001c0 a4 9f 04 3e 59 f9 78 bd cd 94 e7 3d 5a 57 ec 3d
       0.12951523 -0.06078467 0.11307678 0.115400985
0001d0 2c 71 21 3e a1 08 50 3e 9e 76 20 3e c1 b9 57 3d
       0.15765828 0.20315792 0.15670249 0.052667383
0001e0 cd f4 af 3d 58 1a a8 3d e0 2e ca 3c 79 1a e8 3d
       0.08591614 0.0820815 0.024680555 0.11333174
0001f0 e0 13 45 3e c4 09 68 be 93 2e a7 3d df 90 2d 3d
       0.19245863 -0.22659975 0.0816318 0.042374488
000200 05 80 47 3e 8d f9 9e 3d 6e b6 cb 3d 63 c1 8b 3e
       0.1948243 0.07762442 0.09946905 0.2729598
000210 00 71 49 3d ed 11 86 bd eb 65 4e 3c 8d b8 07 3d
       0.04918003 -0.06546388 0.012597541 0.033134986
000220 ca c3 11 bd 14 23 62 bd ff 08 4f 3d d5 c7 d9 3d
       -0.03558711 -0.055209234 0.05054569 0.10633818
000230 48 01 7c 3d 22 e4 10 3e 91 60 21 3e ff 24 f5 bc
       0.06152466 0.14149526 0.15759493 -0.029924868
000240 b8 19 a9 3c 57 74 9f 3c 55 de 9e 3d ee 9e 00 3b
       0.020642146 0.019464655 0.0775725 0.001962598
000250 41 8d c9 3d 3d 7b 92 bd db 30 bd 3d af c9 04 bb
       0.09841395 -0.07152412 0.09237834 -0.0020261814
000260 09 3b 8f 3d 34 e5 5d 3d 3c 86 4c 3d d7 7e 51 3d
       0.06993682 0.054173663 0.049932703 0.051146355
000270 a0 f1 c7 3d 8c 41 a7 3d 24 b3 14 be 53 00 f2 3c
       0.09762883 0.08166799 -0.14521462 0.02954117
000280 ea f4 8a 3e 31 36 09 3e ec 7c b6 3d c6 34 25 3e
       0.2713998 0.13399579 0.08910546 0.16133413
000290 52 0d 2a be 8c a9 19 3e 24 5e 98 3d b9 fb 8d 3e
       -0.16606644 0.15006083 0.07439831 0.27731112
0002a0 65 1a e8 3c c9 7b 1c 3e 45 22 00 3c a6 a4 b1 3c
       0.028332898 0.15281595 0.0078206705 0.021684956
0002b0 47 2a fb 3d 04 bf 49 3d 74 1c d8 3c c2 84 09 3d
       0.12263923 0.049254432 0.026380755 0.033573873
0002c0 44 4e 08 3e 2e 0c ac bd b0 e8 02 bd 2c 76 c8 3c
       0.13311106 -0.084007606 -0.03196019 0.024470411
0002d0 31 a9 af 3d a7 38 97 bc e1 59 6c 3d db 2d b0 3d
       0.085771926 -0.018459631 0.057702903 0.08602496
0002e0 91 c3 30 bd 9b ec 11 3d 72 45 17 3d a4 0a 11 3e
       -0.043155257 0.035626035 0.036931463 0.14164215
0002f0 9f 2e 6a 3e 88 c8 9d 3e 9a 31 2d ba d9 ef 24 3e
       0.22869347 0.30817056 -0.00066068175 0.1610712
000300 fd 7a 10 3c 8e 3e 96 3c d3 cf 4e bc 7c 27 31 3e
       0.008818385 0.018340375 -0.012622791 0.17300218
000310 68 69 d9 3c df 16 7e 3d b0 5f b6 ba a5 88 8d 3d
       0.02653952 0.06203353 -0.0013914015 0.069108285
000320 25 d4 68 3d c3 de a4 3d 8a e7 22 be 1e 4e 92 3d
       0.05684294 0.08050301 -0.15908638 0.07143806
000330 3c 5b 78 bd de d4 4f bd 7f 5a 71 3d 5c f7 f8 bd
       -0.060633883 -0.050740115 0.058924194 -0.12156555
000340 d2 35 1f 3e bc c7 ec bc dc 13 46 3d 6f 8b f8 bd
       0.15547875 -0.028903835 0.048358783 -0.1213597
000350 67 39 1e bd 58 2e 7a bc 30 c0 d0 bc 7d 35 0a bc
       -0.038628962 -0.015269838 -0.025482267 -0.008435604
000360 24 5d 02 bc 6f dc 97 3d 4c d7 55 bd d0 2b e9 bc
       -0.007956777 0.07415091 -0.052207276 -0.028463274
000370 f4 bb ce 3c af 8b 17 be bb 9e b2 3c 21 da 8d 3d
       0.025236107 -0.14799379 0.021804204 0.069263704
000380 cf ce 09 bd 76 4b 60 3d 2a bd 6a 3d b9 2e 73 3d
       -0.033644494 0.054759465 0.057309307 0.05937073
000390 9e c8 86 3d 9a af e5 3d 85 67 21 be f3 9b 9b bd
       0.065812334 0.11215134 -0.15762146 -0.07598104
0003a0 21 88 7b 3d 52 2f bb bc 9e b9 7f bd 63 dc 55 3d
       0.06140912 -0.022849713 -0.062432878 0.05221213
0003b0 ea ee 97 bd 66 f7 2e bd c3 af c3 bc 87 95 be 3d
       -0.07418616 -0.042716406 -0.02388752 0.09305864
0003c0 65 99 f6 3b cf e1 00 be 11 9f 14 bd d4 ec b2 3d
       0.0075256103 -0.12586139 -0.03628451 0.08736578
0003d0 b1 f7 5b 3d ea 6f e0 3d 2b ec 7f bd a9 b8 92 3c
       0.053703014 0.10958846 -0.062481087 0.017910318
0003e0 cf 3b 23 3d 55 47 07 bc b0 8e 71 bd 8c ac 80 3d
       0.03985196 -0.008256753 -0.058973968 0.06282911
0003f0 c0 4a 50 bd c0 f5 a1 3c e1 4d 6a bd 95 45 b9 bd
       -0.050852537 0.019770503 -0.057203177 -0.09046475
