lstm_20141393.pth (torch, 537351 bytes, 10 tensors)

lstm.weight_ih_l0 f4 [400, 28]
000000 76 5e cc bd 4b 95 d3 bd 29 aa 3b 3e 3a 9e 8d 3e
       -0.099789545 -0.1033121 0.1832663 0.2765978
000010 4e 5c a1 3e 22 0e bd 3e c5 e6 66 3e cc 2f 76 3e
       0.31515735 0.36924845 0.22548969 0.2404167
000020 63 5c 1c 3e 13 30 22 3d 6a 1d 6b bd f5 fe 04 bc
       0.15269618 0.03959663 -0.0574011 -0.008117427
000030 a1 eb c8 3d 73 24 90 3d 77 9f 7e b9 38 33 98 3c
       0.09810568 0.07038202 -0.00024282733 0.01857911
000040 82 d5 82 3d fe 0e 87 bd 8c 61 a6 3d 06 5a 4d 3e
       0.0638838 -0.065946564 0.08124074 0.20053872
000050 9a 20 aa 3c ef 9c 6a 3c fb 3c 91 bd 5e f3 f0 3c
       0.020767499 0.014319642 -0.07091709 0.029412922
000060 f1 47 8b be 70 0a 47 be 49 28 c8 bd fc e7 3e 3e
       -0.27203324 -0.19437575 -0.09773309 0.18643183
000070 cd ee 4e 3d d3 a6 47 3c f7 3a b3 3d 5a d4 b4 bc
       0.050520707 0.01218577 0.08751481 -0.022073913
000080 5a e5 0b 3e e8 69 23 3e de 7e 77 3e 8b 83 f6 3d
       0.1366171 0.15958369 0.2416949 0.120368086
000090 50 57 20 be c6 99 81 bd ca 08 44 bd f1 15 fa 3d
       -0.15658307 -0.06328158 -0.047859944 0.12211216
0000a0 9a c9 0a 3e 20 67 d1 3c 02 93 0d be 93 b4 c7 bd
       0.13553467 0.02556187 -0.1382561 -0.09751239
0000b0 5c 45 51 3e b7 61 d0 3d 50 50 f3 3d c1 3b 5f 3d
       0.20436615 0.101748876 0.11880553 0.054500345
0000c0 a4 5c f2 3d bf 08 25 ba 97 ec 8b bd 00 85 05 be
       0.11834076 -0.0006295554 -0.06832235 -0.13039017
0000d0 de 7c 44 bd 5c 4f f4 bd f4 9c 27 be a2 f2 5d 3e
       -0.047970645 -0.11929199 -0.16368467 0.21674588
0000e0 06 c0 8a bb 31 99 eb 3c 7f bb 49 bd 89 57 46 3e
       -0.0042343168 0.02875957 -0.049251076 0.1936933
0000f0 ce 95 0b 3e 4b ee 18 3e cb 3c af 3d 53 33 0a 3c
       0.13631365 0.14934652 0.08556517 0.008435088
000100 a2 c3 55 3d fc 7a 7d bd 8d f8 b4 3d b0 fb e7 3d
       0.052188523 -0.061884865 0.0883647 0.113273025
000110 5c 3b f2 3c 68 eb d5 bd 77 90 a7 bd 2c e4 7f 3c
       0.02956932 -0.10445291 -0.08181851 0.015618365
000120 a9 af 2a 3e 8a 31 0b 3e f9 60 32 3e 62 f4 4c 3d
       0.16668572 0.13593116 0.17419805 0.05003775
000130 71 1e 2f 3e 21 11 f1 bb 64 90 91 bd f5 db 95 bd
       0.17101456 -0.0073567783 -0.071076185 -0.07317344
000140 41 1c c1 bc 82 b8 04 3e c0 de 60 3e 0e 3e c5 3d
       -0.023573043 0.12961009 0.21959972 0.096309766
000150 64 b9 92 3a 6a 14 b3 3b e4 32 58 3e ea eb b1 3d
       0.0011194167 0.00546508 0.21113163 0.08687575
000160 fa 7f 24 3c 6f 1b 4e bc ed 07 b4 bd 20 96 6c bc
       0.010040278 -0.012579783 -0.08790574 -0.014440089
000170 2e 82 04 3e 52 97 2d 3e 0e c1 e0 3d 75 c8 e7 3d
       0.12940285 0.16952255 0.10974322 0.11317531
000180 f7 d5 0b 3e 1d 15 d0 3d 09 a0 59 3e a2 89 22 3e
       0.1365584 0.10160277 0.21252455 0.15872815
000190 fa bb 3d 3e 76 c6 5b bb ae ae 02 3d b3 71 92 3d
       0.18528739 -0.003353504 0.03190487 0.07150593
0001a0 5e 10 46 3e 27 69 1c 3d 4f dc c8 3d 5c 58 1b 3e
       0.19342181 0.03818622 0.098076455 0.15170425
0001b0 7f 27 b6 3d 63 27 10 3c 23 6a 46 bd c3 10 4f 3d
       0.08894252 0.008798453 -0.048441064 0.050553095
0001c0 89 02 60 3d 51 3a 33 3e ee a3 c8 3d 9c fa 4e 3e
       0.054689918 0.17502715 0.09796892 0.20212787
0001d0 f5 51 4e 3e a5 4e 0e 3e 3c 45 73 3d 6c 89 99 3d
       0.20148452 0.13897188 0.0593922 0.07496914
0001e0 6e 93 b3 bc df c4 fd 3d a9 41 40 3e f1 8c 53 3e
       -0.021920886 0.12391066 0.18775047 0.20659234
0001f0 c9 f8 e9 bb 62 ce 2d 3d 89 9b b5 bc e2 d1 ba bd
       -0.007140253 0.04243315 -0.022168892 -0.09122063
000200 e2 fe 46 bd 79 20 18 be 9b 04 39 be 38 9f 81 be
       -0.04858292 -0.14856137 -0.18068163 -0.25316787
000210 bc 94 78 be b3 9b c9 3b f1 da e8 3d 2a 1d dd bd
       -0.24275488 0.006152594 0.11369885 -0.10796578
000220 5f da 4e bd 1a cd 9b be 9d 64 1f bd a6 7e a7 3e
       -0.050501224 -0.30429918 -0.03891431 0.32713813
000230 e2 12 b9 bd 92 ef 19 be 04 44 fc 3d cc 4a 07 bd
       -0.09036805 -0.15032795 0.123176605 -0.033030316
000240 b0 32 5f bd 22 6c d1 3d f5 3f 05 3e f8 1e e1 bd
       -0.0544917 0.10225703 0.13012679 -0.10992235
000250 4a 29 7d bd 2e c6 10 3e 1d d5 a5 3d 78 4e 53 3e
       -0.061806954 0.141381 0.08097289 0.20635402
000260 22 b6 11 3e 25 c2 7f 3e b7 bb a4 3e 9c d0 c5 3e
       0.14229634 0.24976404 0.32174465 0.3863572
000270 97 25 a8 3e 4b a6 86 3e 27 b1 0d 3e 89 58 0d 3d
       0.3284118 0.26298746 0.1383711 0.03450826
000280 e8 2d 86 3d 9e 70 a2 3c f6 80 0d 3b ae b2 2a 3e
       0.06551725 0.01982909 0.002159176 0.16669723
000290 c5 cd 1e be ef 02 e2 bd 60 8f 70 be 67 3f 6e 3c
       -0.15508182 -0.11035716 -0.23492193 0.0145414835
0002a0 92 f7 cf bc 74 05 91 3d 83 13 5f bc e7 d9 97 bb
       -0.025386605 0.07081118 -0.013615492 -0.0046341303
0002b0 f9 ea 60 3e 85 17 a2 3e 24 16 25 3e ac 9a 80 3d
       0.21964635 0.3165857 0.16121727 0.06279501
0002c0 c8 bf 10 3e bb 40 19 3d 46 a8 9d bd e5 7e 25 3e
       0.14135659 0.037415247 -0.07698111 0.16161688
0002d0 2d 8a 83 3e 86 17 cb 3e 59 cf b2 3e dc 11 46 3e
       0.25691357 0.39666384 0.3492382 0.1934275
0002e0 ff bd 60 3d b9 60 18 3c a6 86 d3 3d 1e f5 c4 bd
       0.054868694 0.009300404 0.103284165 -0.09617065
0002f0 ae 58 16 3d 3b 30 a9 3d 71 d2 a3 3c 1e a5 05 3e
       0.036705665 0.08261152 0.019997807 0.13051268
000300 14 35 35 3c 41 85 24 be 10 63 a8 bd 84 24 82 3e
       0.011060018 -0.16066457 -0.0822202 0.25418484
000310 50 96 e4 3d a3 dc 8c bd 8f e1 04 3d f8 f2 e5 3d
       0.11161482 -0.068780206 0.032441672 0.11227983
000320 ba b6 58 bc 14 6e 3a be 7b 58 9f bd 6f 62 5b 3b
       -0.013227159 -0.18206054 -0.07780548 0.003347542
000330 d4 5d 60 3d e8 ad 90 bd ee 9b b0 3d 3c 20 11 bd
       0.05477698 -0.0706442 0.08623491 -0.03543113
000340 d4 7d 3e 3c 85 90 bf bc d6 2f 02 3e d8 c3 32 3d
       0.011626679 -0.023384342 0.1271356 0.043643802
000350 08 62 af 3d 1e 25 22 3e d7 15 03 bc db a0 df 3c
       0.0856362 0.15834472 -0.0080008125 0.027298382
000360 93 6d 9c 3c 4f 40 a4 bd 84 94 ad bd 4f 64 82 3d
       0.019095218 -0.080200784 -0.08475593 0.063667886
000370 ad 6d 6a 3e 67 a7 4c bc 97 18 ab 3d be 5c 43 be
       0.228934 -0.012491084 0.083542995 -0.19078347
000380 17 78 30 be 65 11 77 3d 2d a6 3f bd a5 16 5f be
       -0.1723331 0.060319323 -0.046789337 -0.21785982
000390 6c 0b 87 be 1a 23 13 bd a2 75 07 be 35 bb 00 be
       -0.26375902 -0.035922147 -0.13228467 -0.12571414
0003a0 e9 74 cc bd 33 9d e8 bd 0c 63 bb 3b e0 25 71 bd
       -0.09983236 -0.11358108 0.0057185944 -0.05887401
0003b0 f6 cc 59 bd c8 64 28 bc 25 d2 32 be be f3 ee 3c
       -0.05317398 -0.010277934 -0.17462976 0.02916896
0003c0 87 40 88 3d 9b 53 e0 3c f3 62 a6 bd 9f 97 2f be
       0.066529326 0.027383616 -0.08124342 -0.17147683
0003d0 83 a2 1f be e0 3b 30 be 5f d2 62 be ad 87 15 be
       -0.15589337 -0.1721034 -0.22150563 -0.14602537
0003e0 17 e2 7d bd 13 1b eb 3c fa 08 86 3d db 31 29 bd
       -0.061983194 0.028699433 0.06544681 -0.04130731
0003f0 b5 ea 8b bc 53 94 f3 3d b1 ba 64 3d 39 99 a2 3d
       -0.01707969 0.11893525 0.055842105 0.07939381

lstm.weight_hh_l0 f4 [400, 100]
000000 94 9d d4 3b b3 0e c4 bd d8 8d f5 3c ea e1 1a 3e
       0.0064885113 -0.09573116 0.029974863 0.15125242
000010 e5 01 12 3e 5f 39 0a 3d ca 70 20 bd 61 f1 d1 bd
       0.14258535 0.03374612 -0.039170064 -0.102511175
000020 ef 3f 23 3e 5b d3 3d 3e 5c 2b 1a be f0 fb 89 bc
       0.15942357 0.18537657 -0.15055603 -0.016843766
000030 7a 65 c9 3c a1 2a 50 be 95 5a 82 3d e0 92 22 3e
       0.02458452 -0.20328762 0.063649334 0.15876341
000040 69 f8 a7 3d ac 71 7f bd 02 8c 4d 3e 03 cc ec 3d
       0.08201677 -0.062364265 0.2007294 0.1156235
000050 a8 4f 83 bd 2b fa ff bd bb 7d 99 3d b9 1b 30 3d
       -0.064116776 -0.12498888 0.07494684 0.04299519
000060 ba 52 a7 3d 14 da 35 3e 59 1b 13 be 0b 70 8f 3d
       0.08170076 0.17758971 -0.14365901 0.070037924
000070 7d 1c 97 3d ae bd 64 3c 41 4a 7a be 5a b7 f2 3d
       0.073784806 0.013961239 -0.24442388 0.11851378
000080 ba e8 80 bd 87 32 04 3d 8a 47 39 3e 41 af 35 bd
       -0.06294389 0.03227475 0.18093696 -0.04435659
000090 db c7 12 be 9e 05 86 bd 3c 83 f3 bd 48 30 92 bd
       -0.14334051 -0.0654404 -0.11890265 -0.07138115
0000a0 08 cf 08 3d 8e a8 de 3d ad 98 c1 bc af 68 c2 3d
       0.033400565 0.10871993 -0.023632372 0.09492623
0000b0 51 3a 05 3e 25 26 9d 3c 0a 76 a0 3c 43 2f 3e 3d
       0.13010527 0.019183228 0.019587535 0.04643179
0000c0 9d 48 64 be a5 32 59 3e 48 9f ae bd 75 e8 07 bd
       -0.22293325 0.21210726 -0.08526474 -0.033180673
0000d0 15 f2 da 3d 27 e9 59 3e 83 11 42 3d 7d 3f 3d bd
       0.10690705 0.21280347 0.04737998 -0.046203125
0000e0 32 f1 97 bd 06 9e dc bd 3e 02 8e 3c 4b 6e 37 be
       -0.07419051 -0.10772328 0.017335054 -0.17913167
0000f0 3a b1 1c bb 95 bf e1 bd 48 cd 82 3c c7 a2 c3 3d
       -0.0023909346 -0.110228695 0.015967026 0.09552532
000100 29 d0 fb 3d 81 56 8d be ab 09 d7 bd ce 33 9b bd
       0.12295563 -0.2760506 -0.10499891 -0.0757824
000110 67 26 c6 bd 9d 85 4c be 00 1d b1 3c 5f 15 94 bd
       -0.096752934 -0.19972844 0.021620274 -0.07230639
000120 ba d0 08 be f9 5c ca bd 74 65 40 3d f0 bb f8 3c
       -0.13360873 -0.098810144 0.046971753 0.030363053
000130 e3 cc ab be 72 e5 fb 3c 10 9b c0 bc d4 d4 92 3d
       -0.33554754 0.030749056 -0.02351144 0.071695
000140 45 eb 47 bd 17 fc e7 bc 6f 01 48 3e f0 00 63 be
       -0.048808355 -0.028318448 0.19531797 -0.22168326
000150 97 84 96 bd 11 d5 e8 bb c2 44 6b be ed 55 c4 bc
       -0.07349508 -0.0071054776 -0.22975448 -0.023966754
000160 d2 fe 1d 3d 52 c5 36 be e0 62 7c 3d 6f d0 84 bc
       0.038573094 -0.17848709 0.061617732 -0.01621267
000170 28 02 99 3b 55 23 95 3c 32 34 a8 3d fe 83 0c 3e
       0.0046694465 0.018205324 0.082130805 0.13722226
000180 4a 79 b7 bd 42 c2 46 3e f4 49 89 3c 49 79 96 bd
       -0.08958681 0.19410041 0.016758896 -0.07347352
000190 30 da 16 ba ed ab 2e bd 22 56 d2 bd f4 e2 c4 3d
       -0.00057545584 -0.04264443 -0.10270335 0.096136004
0001a0 f2 cf 4d 3e 54 d6 1a 3e 63 3e cc bd f5 ee 6c bd
       0.20098856 0.15120822 -0.09972837 -0.057845075
0001b0 1a 09 00 bd a1 7c 2e 3c 29 37 81 be 38 b7 db 3d
       -0.03125868 0.010649831 -0.25237396 0.107283056
0001c0 7b 28 8b 3d 6a d9 11 bc b0 96 4d bd 43 2c eb 3d
       0.067948304 -0.008901933 -0.050192535 0.11483052
0001d0 e6 bf 12 3d ef aa 22 bb 8c b3 87 bd 1e 2a 23 3e
       0.03582754 -0.0024821123 -0.06626043 0.15934035
0001e0 b6 16 bb bd 67 5d 6f bb 4f 7a bd 3d ac d9 16 be
       -0.09135191 -0.0036524178 0.09251844 -0.14731473
0001f0 bf f3 e3 bd 22 08 b0 3c d3 34 ca bb e3 1f 5e 3d
       -0.11130475 0.021488253 -0.006170848 0.05422963
000200 cc 72 eb bb bf a7 15 be 7b b2 47 3b 1e 55 49 3d
       -0.0071853157 -0.14614771 0.0030471373 0.04915344
000210 b6 6c 07 be 97 d3 af 3c e9 0a a5 bc a4 3e 3a 3d
       -0.13225064 0.021463199 -0.020146804 0.045469895
000220 45 31 7b bd bd cd 5a be ae 44 c4 bd 51 5e df 3d
       -0.061326284 -0.21367545 -0.09583412 0.10906661
000230 e4 58 2a 3d 5f 10 9e 3e 64 de a8 3d 7b d2 e5 3c
       0.04158868 0.30871865 0.08245543 0.028054466
000240 b1 da 8f bd 00 1d b4 3e ab f8 03 bd d0 80 ea 3d
       -0.07024134 0.35178375 -0.03221957 0.1145035
000250 c8 8c d4 3d 46 37 2f 3d 28 4a 40 bd 64 bb 9f bc
       0.103784144 0.042777322 -0.04694572 -0.019498535
000260 66 cb 51 bd 0f a1 e5 bc a4 cd 51 bd d8 d4 16 be
       -0.051219366 -0.0280309 -0.051221505 -0.14729631
000270 dc 2a d1 3d bb 00 70 3c 0d 63 0f 3d 50 e6 7a bc
       0.10213253 0.014648612 0.03500657 -0.0153137
000280 d6 eb 30 3e d8 0c b9 3c de 8f 95 b6 28 00 ca 3a
       0.17277464 0.022589132 -4.4572944e-06 0.0015411424
000290 45 fc 1b 3e e4 4f 28 3e f1 33 14 bb 95 2f 6f 3e
       0.15232952 0.16436726 -0.0022613967 0.23357995
0002a0 c8 9e 15 3e ed 8b 49 3e 80 3a 69 bd e8 7b 92 3a
       0.14611351 0.19682284 -0.056940556 0.0011175843
0002b0 6a ae 7b bc 1b 3f 89 bc 71 9a 94 3d 05 f5 54 bd
       -0.015361408 -0.016753724 0.0725602 -0.05199148
0002c0 19 a4 8b 3e fa f5 f4 3c 1c 50 27 bd 48 b9 aa 3d
       0.27273634 0.029902447 -0.040847883 0.08336121
0002d0 7c a1 20 3e 6b fb 0c be 03 ad c5 bd c3 86 82 3d
       0.15686601 -0.13767783 -0.0965214 0.0637336
0002e0 7f 0c ac 3c 7c cc 48 3d 25 3c b0 bd 77 12 f1 3d
       0.021002052 0.049023136 -0.08605222 0.117711
0002f0 b3 e3 3c be 99 30 d2 3e 87 6f 18 be 4f 54 aa bd
       -0.18446235 0.41052702 -0.14886294 -0.08316862
000300 21 b5 39 be 24 d6 64 bd 6a d9 6b bd f6 95 d9 3d
       -0.18135501 -0.055868283 -0.05758039 0.10624306
000310 1b 80 09 be 60 75 18 3e b3 7e 8e 3e 72 8e 5e 3e
       -0.13427775 0.14888525 0.2783104 0.21734026
000320 a8 a0 83 3d f5 e4 95 3d 9e 74 01 ba f8 5d f7 3d
       0.06427127 0.07319061 -0.0004938337 0.1207847
000330 d8 88 d8 3d eb 03 10 bd 59 46 8f 3d 30 ce e6 3d
       0.10572976 -0.035159986 0.069958396 0.11269796
000340 7a ca 84 3d 60 69 7d 3d 13 43 00 be 23 b7 81 3d
       0.06483932 0.06186807 -0.12525587 0.06333759
000350 e3 4f 92 bb 7a 36 b3 bc c5 33 2b 3d f8 2f a7 bd
       -0.0044650896 -0.021876562 0.04179742 -0.08163446
000360 5e 68 23 be cf e3 8a bd 96 ed 17 3e 1f 6c 2c 3e
       -0.15957782 -0.06781732 0.14836726 0.1683812
000370 84 00 50 be 46 ec e8 bc 1e 6c 09 be d5 07 4f 3e
       -0.20312697 -0.028432976 -0.1342015 0.20217831
000380 3f ce 4a 3c 5e 2e af 3b 68 d1 8f 3c 96 89 eb bd
       0.012378274 0.0053461036 0.017555907 -0.11500852
000390 54 c3 0a 3e 53 de 18 3c d7 a1 a4 bc 8e 2f d0 3c
       0.13551074 0.00933035 -0.020096703 0.0254133
0003a0 9d db b2 3d 7e a1 85 bd 3a b2 4a 3d fa c6 5d be
       0.08733294 -0.06524943 0.049486376 -0.21657935
0003b0 11 85 3e be 97 74 31 bd 08 a0 fa 3c b1 e3 78 bd
       -0.18605448 -0.04332408 0.030593887 -0.06076402
0003c0 15 f3 e1 3d c5 37 52 3e 14 36 6b bd 91 27 2d be
       0.11032692 0.20529087 -0.05742462 -0.16909625
0003d0 57 f8 09 bc cb f7 08 be 3f d2 05 be 35 93 64 3e
       -0.008421025 -0.13375776 -0.13068484 0.2232178
0003e0 5c a6 20 3e 90 94 03 3c b9 38 c6 bd 6c 6d ba bc
       0.15688461 0.0080310255 -0.09678788 -0.022757255
0003f0 20 ff f7 3c 12 19 ea bc 41 82 2a 3d 36 be a8 bd
       0.03027302 -0.028576408 0.041628126 -0.08239405

lstm.bias_ih_l0 f4 [400]
000000 70 a7 84 bc bc a1 32 bc 6b df 61 3e 0e d1 0f bd
       -0.016193122 -0.010902818 0.22057883 -0.03511148
000010 eb 08 8d 3d 34 2f 36 bd e9 66 02 3e 8f 8d 9a 3d
       0.068864666 -0.04447861 0.1273457 0.075465314
000020 30 79 ce 3c 02 42 0c 3d 06 08 d4 3d 90 2a df 3d
       0.025204271 0.034242637 0.10353093 0.1089679
000030 f4 61 38 bd 5d ab 1b 3d b6 73 c1 3d 42 b5 cf 3d
       -0.04501529 0.03800522 0.09445898 0.10141994
000040 55 1a 63 3d 26 01 b5 3c c1 d3 84 bd 9a 39 e4 bc
       0.055445034 0.022095274 -0.06485701 -0.027859498
000050 cd 13 a3 bb 7d e9 a5 3d 9d 2e 40 3e 31 d2 4c 3e
       -0.0049767257 0.08101175 0.18767782 0.20002057
000060 9d d5 a6 3d 03 b4 1c 3e 43 87 af 3d 1d b2 d3 3c
       0.08146212 0.15303044 0.08570721 0.025841767
000070 0c 58 e7 3d fa f5 db 3d 3b f0 33 3d 04 8e 90 bc
       0.112960905 0.10740276 0.043930274 -0.017645843
000080 b7 f3 39 3e 59 18 d2 bd 4c de 6c bd b1 80 e6 3d
       0.18159376 -0.1025855 -0.057829186 0.11255015
000090 f0 00 ed bd 93 2d 94 3c 3c 17 12 bd 8e af 84 3c
       -0.115724444 0.018088138 -0.03566669 0.016196992
0000a0 65 06 e1 3d ae 2e 60 bd 5b 70 47 3d e7 80 d0 3d
       0.10987548 -0.054732017 0.048691135 0.10180836
0000b0 6e b1 2f 3d 03 04 0e 3e 7f 7b 37 3c a4 06 43 bd
       0.04289382 0.13868718 0.011198877 -0.047613755
0000c0 26 c8 c2 bc 7a 16 14 3e 4e 89 f1 3d 39 53 d4 3d
       -0.023777079 0.14461699 0.11793767 0.10367436
0000d0 be b9 0d bd df eb 53 3b a2 77 56 3d a0 6e 07 bc
       -0.034600966 0.0032336635 0.052360184 -0.008266121
0000e0 0b 11 dd 3b 57 36 8e bd 33 ec 9c bd 92 36 7d 3e
       0.0067464164 -0.06943958 -0.07662239 0.24727848
0000f0 bd df 5f 3c 18 e6 20 3e ae 2b 29 3d 5c 39 60 3d
       0.013664183 0.15712774 0.04130142 0.054742202
000100 f7 40 23 3d ea 9c 57 3d f9 0b b1 bc 69 8b ec bb
       0.039856877 0.05263988 -0.021612154 -0.0072187674
000110 d4 05 34 3d 69 0d 18 bc 74 bf 28 3e 20 5c 4a 3e
       0.04395087 -0.009280541 0.16479284 0.19761705
000120 d3 9b c7 3c 53 d1 0b 3e 40 95 a3 3d a5 4a 13 3d
       0.024366295 0.1365407 0.079874516 0.03595986
000130 e5 0e 3d 3e 0a 90 dc 3d bd 7c 9b ba 78 7f b6 3c
       0.18462713 0.10769661 -0.0011862736 0.022277579
000140 0f 3b 1f 3e 07 31 03 3d 8a da 93 3d ea 6e 08 3d
       0.15549873 0.032029178 0.072194174 0.0333089
000150 27 d9 df 3b 2d 1a 63 bd a3 73 81 bd 7f de 09 bd
       0.0068313065 -0.055444885 -0.06320884 -0.033659454
000160 8e 99 0d 3c 4a dc 86 3d f8 ac 4e 3d b9 05 27 bc
       0.008642567 0.065849856 0.050457925 -0.0101942355
000170 a3 b8 1d bd 6c 3a a8 bd 5c b4 14 3e e7 49 62 3d
       -0.03850616 -0.08214268 0.14521927 0.05524626
000180 24 f1 be bd 93 6d 85 bd fc 19 be 3d 8c eb 0f 3e
       -0.09323338 -0.0651504 0.092823 0.14054698
000190 ec 64 10 3d 8b 36 d3 3c d4 31 d6 3c cf 77 e0 bc
       0.035252497 0.025782844 0.026146807 -0.02740088
0001a0 4a 44 cc 3d 95 ad 33 3d 62 bc a3 3d 89 51 24 3e
       0.099739626 0.043866713 0.079949155 0.16046728
0001b0 0d 0a bd 3c 2a de 23 3e f0 b1 cd 3d 5e 6e ac 3c
       0.023076082 0.16002718 0.100437045 0.02104872
0001c0 b7 12 23 3e f9 dd 8c 3d 8a 47 ab 3d c6 34 ce 3d
       0.15925108 0.068782754 0.08363254 0.100686595
0001d0 7f fb 8c bb 27 17 73 3d 1b 13 06 3d 8e be ca 3a
       -0.0043024416 0.05934825 0.032733064 0.0015468167
0001e0 2e 02 40 3e 14 31 07 3a 89 f9 df 3d ca bd f4 3c
       0.18750831 0.00051571545 0.10936267 0.029875655
0001f0 45 4c 16 bd 53 e3 e5 b9 69 ef 0a 3e 86 33 23 3e
       -0.03669383 -0.00043847653 0.1356789 0.15937623
000200 71 6f c0 3c 59 9d fe 3d 52 f1 38 3d 7e 9a 09 bb
       0.02349064 0.124323554 0.045152016 -0.0020996626
000210 24 8d 88 3d 4e ba 8a bd 17 ee 6a 3d b4 3c 66 bd
       0.066675454 -0.06773816 0.057355966 -0.056210235
000220 8a 10 bc 3d d4 88 8a bd 40 b6 8b 3b 4e 44 05 3e
       0.09182842 -0.06764379 0.0042636693 0.13014337
000230 43 fa 1e 3e 73 4e 8f 3d fd c3 18 bc 61 99 9b 3d
       0.15525155 0.06997385 -0.009324071 0.07597614
000240 5b e4 11 3d 72 fc 13 3d f1 b4 a3 bd 53 c6 e7 3c
       0.035618167 0.036129422 -0.07993496 0.02829281
000250 6b 7d be bb b1 a5 dc 3c d3 5c f1 3d be 53 22 bd
       -0.005813291 0.026934477 0.11785283 -0.039630644
000260 90 be 52 3d f6 68 74 bd 5a b3 0a 3e 25 31 a9 bd
       0.051451266 -0.05967041 0.1354498 -0.08261327
000270 13 e4 37 bd 29 ec aa bd 15 92 41 bd 04 df 40 bd
       -0.044895243 -0.08345825 -0.047258455 -0.047087684
000280 e9 28 1e 3e 1c 28 e8 bc 77 d4 7c bd 9c 63 19 bd
       0.15445293 -0.028339438 -0.06172606 -0.03744851
000290 a9 5e 77 bd 8a 45 ff 3d 30 b5 3c 3e da 9f 5c bc
       -0.06039301 0.124644354 0.18428493 -0.013465846
0002a0 a7 b9 0b 3e dd 1a 73 3d df f7 80 3d c3 e2 c7 bb
       0.1364504 0.05935179 0.06297278 -0.00610003
0002b0 03 ce ca 3d 5b 55 ed 3d 94 e7 1e 3d 9d 7c 46 ba
       0.09902575 0.11588546 0.03879507 -0.00075716694
0002c0 d7 72 8b 3d 24 a3 3c 3d 7c 9e 17 3e 92 a4 6c 3d
       0.06809013 0.04605402 0.1480655 0.057774134
0002d0 7a 84 5e 3d b7 22 ee bd 91 7d e9 bb 0a 74 cb 3b
       0.05432556 -0.11627715 -0.0071255644 0.0062089013
0002e0 18 2b 44 bd 5f 91 25 bd ca 64 bc 3d f7 4a b7 3d
       -0.04789266 -0.04042184 0.091989115 0.08949845
0002f0 e7 c6 b6 3d 21 82 94 bd 19 b9 32 3e b6 dc b2 3d
       0.08924656 -0.072513826 0.17453422 0.087335035
000300 90 50 ba 3c 6c 12 f0 bb 75 01 f3 bb 97 d9 32 3d
       0.022743493 -0.007326415 -0.007415945 0.04366454
000310 2a 0d a8 bd 97 74 db bc 4b 33 b8 3d d7 ab d7 bd
       -0.08205636 -0.026788993 0.08994158 -0.10530823
000320 ae dd e7 3d 35 49 a2 3a 5b 8d 92 bc 76 6f 70 bc
       0.11321579 0.0012381437 -0.01788967 -0.014675012
000330 65 d8 c4 bc e9 af 60 bd c0 9b f2 3d 74 db b2 bb
       -0.024028966 -0.05485526 0.11846113 -0.0054582898
000340 aa b2 9c bd 7c a6 38 bc f2 06 07 be bd 6b a9 3d
       -0.07651265 -0.011270162 -0.13186243 0.082725026
000350 a1 50 01 3e ff 26 81 bd 4f 8d 0b bd a0 7b ec bc
       0.12628414 -0.06306266 -0.03407031 -0.028867543
000360 95 5e 83 3d 49 5c ed bd a3 6f b1 3d da 25 c2 bb
       0.064145245 -0.115898676 0.08663871 -0.0059249224
000370 7b 52 85 bd 70 7d 7d bd 0f d7 42 bd f8 fa de 3d
       -0.065098725 -0.061887205 -0.047568377 0.10887712
000380 08 ae c7 bc 04 98 d8 3d b0 6f 5c bd 26 76 9b bc
       -0.024374977 0.1057587 -0.05381745 -0.018977236
000390 bb ef 8e 3d 68 81 75 bd 17 4f 96 3d 03 ae 35 bd
       0.06979319 -0.059937865 0.07339304 -0.044355404
0003a0 81 46 f9 bb 20 0a 44 bd 7f e2 a7 bd eb 3b 6c bd
       -0.0076072817 -0.04786122 -0.081974976 -0.05767433
0003b0 6c 0a 02 3b a9 6c 4c 3d e0 69 f6 3c ba ac c2 bd
       0.0019842638 0.049908314 0.030079782 -0.09505601
0003c0 da 6f 95 3d 40 3b 6d bd fe f0 36 bb a6 d9 96 bc
       0.072967246 -0.057917833 -0.0027914639 -0.01841433
0003d0 76 80 d8 3c bd 89 83 3d a7 14 a3 3d 26 b8 75 bd
       0.026428442 0.06422756 0.079629235 -0.05999007
0003e0 97 e7 ac 3d d5 01 bb bc 13 1c 5f bc be 5c f0 bc
       0.0844261 -0.022828022 -0.013617533 -0.029341098
0003f0 96 6a 66 3d fa d5 b2 3d fc 5a 9a 3d c9 a6 0a 3d
       0.056253992 0.08732219 0.07536885 0.033850465

lstm.bias_hh_l0 f4 [400]
000000 02 a3 26 3d 49 6e 74 3d 55 b4 63 3e ff c1 a2 bd
       0.0406828 0.05967549 0.2223676 -0.07947158
000010 96 5f 02 3e a6 4e 85 3d 8d c1 0a 3e 34 bd bd 3d
       0.12731776 0.065091416 0.13550396 0.09264603
000020 ca b4 b2 3d e9 83 87 3d 9c 08 f0 bc 8d 4f ba 3d
       0.08725889 0.06616957 -0.02930098 0.09097204
000030 ba b5 e0 bd d2 58 52 bb 33 36 de 3b 97 e3 8f 3c
       -0.109721616 -0.0032096398 0.0067813634 0.017564578
000040 87 96 4c 3c 72 76 3b bc 99 b7 19 bd 92 b1 b2 3c
       0.01248706 -0.011441814 -0.037528608 0.021813188
000050 bd 9a 07 3e db ec 0c 3e fc 9d fc 3d 44 93 f5 3c
       0.13242622 0.13762228 0.12334821 0.029977448
000060 c1 5e 0a bd 76 4d d9 3c de d4 05 bd 36 21 a9 3d
       -0.03378177 0.026526194 -0.03267371 0.082582876
000070 b5 dc e5 3d e5 37 aa 3d 2e b2 e1 3d 7d 21 68 bd
       0.11223737 0.08311442 0.11020313 -0.056672562
000080 c6 6a 7e 3d d0 d3 9b bd b0 20 f8 3c df 0e 34 3d
       0.062113546 -0.076087594 0.030289024 0.043959495
000090 ef 1e ad bd d5 4a 77 3b fa 48 8e bc b3 a8 61 bd
       -0.08453166 0.0037733812 -0.017368782 -0.055092525
0000a0 b5 67 6d bd 73 d0 0e 3d 7d 36 75 3d fa 21 a9 3c
       -0.05796023 0.03486676 0.059866417 0.020646084
0000b0 d1 13 82 bc aa 07 1e 3e fd 9d 14 bd b4 8f ed 3d
       -0.01587859 0.15432611 -0.036283482 0.11599675
0000c0 c5 b8 bd bd 35 a9 16 3c a1 72 ee 3d 11 12 84 bd
       -0.092637576 0.009195616 0.116429575 -0.064487584
0000d0 5f 53 a4 3c b3 af fe 3d ae 03 9a 3d 26 94 c7 bd
       0.020059286 0.12435856 0.07520233 -0.09745054
0000e0 ae 1f 98 3b b2 f6 15 bd b8 c1 3b bc 5d 1f 89 3e
       0.0046424484 -0.03661222 -0.01145976 0.2678174
0000f0 8a dd 6c bd 72 08 43 3e 4c 1a 1d bd da 61 61 bc
       -0.057828464 0.1904619 -0.038355157 -0.01375624
000100 df 3d 69 3d fe 56 56 3e 37 c3 7f bd 33 b0 8f 3d
       0.05694377 0.20931622 -0.06244203 0.07016029
000110 7e 79 f4 3d 36 10 d6 bc 63 c4 76 3d ab fb 7a 3e
       0.11937235 -0.026130777 0.060245883 0.24510066
000120 26 c6 d3 3d 78 47 3e ba 54 32 b7 3d 19 00 42 3d
       0.10340528 -0.00072585745 0.08945146 0.047363374
000130 df fb 82 3b 35 c4 2a 3e 5f 20 08 3e 60 4a de bd
       0.0039973105 0.1667641 0.13293599 -0.1085403
000140 72 07 c3 3d c1 8c f9 3d 5f 02 bb 3c da f9 0c 3d
       0.095229045 0.1218505 0.022828279 0.034417965
000150 9b ed b5 3d bf 94 84 bc 16 8e 02 3e a1 fd 23 3d
       0.0888321 -0.016184209 0.12749514 0.0400368
000160 3e b8 5f bd c3 dd fc bc 75 d6 18 3d 04 de 02 bd
       -0.054619066 -0.030867463 0.037313897 -0.03195001
000170 62 aa 21 be 3d ec b3 bd 7b 29 25 3e 64 70 b8 3d
       -0.15787652 -0.08785293 0.16129105 0.09005812
000180 72 c5 ed bd 8d 15 64 bd 58 43 da ba db cc 22 3e
       -0.11609925 -0.055684615 -0.001665215 0.15898459
000190 cd fc 7a 3d 88 a6 22 3c 36 8c 88 3d d5 6a 2a bc
       0.061276246 0.009927399 0.06667368 -0.010401447
0001a0 74 47 3e 3d 7c 9d 6e bd 0c d3 19 bb af 82 08 3e
       0.04645486 -0.058255658 -0.002347174 0.13331102
0001b0 ea a1 d2 bc 76 16 c0 3d b6 3b ad 3d 8c 14 be bd
       -0.025711972 0.09379284 0.084586546 -0.09281263
0001c0 4b 3f 16 3e b4 fa a2 3d 1d 25 3f bd 27 8e a2 bd
       0.14672582 0.07957974 -0.046666253 -0.0793727
0001d0 a1 47 45 bd 76 1d 4c bd 7f 23 ae 3c 1e 3c 05 be
       -0.048164014 -0.049832784 0.02125716 -0.13011214
0001e0 1e f4 6d 3e 00 5d 6d bc d2 3c 9b 3d f3 af 52 3d
       0.23237655 -0.014487505 0.0757996 0.05143733
0001f0 40 14 38 3d a4 77 8e 3d 7f d1 00 3e 67 a6 0a 3d
       0.044941187 0.069564134 0.12579916 0.0338501
000200 dd f7 2b 3e 07 87 2d 3d a7 3f e7 3c cf bf 34 3d
       0.16793771 0.0423651 0.028228594 0.044128235
000210 f0 48 94 3d 85 84 a2 bd 39 16 da 3d bd 74 bc bc
       0.07240474 -0.07935432 0.1064877 -0.023004884
000220 3b cc 83 3d 36 e8 00 3d 5a 76 da ba 1d 10 ce 3d
       0.06435438 0.031471454 -0.0016667352 0.10061667
000230 f0 03 27 3e e4 31 10 3e 0a 96 18 bd ec c2 e3 3b
       0.16310096 0.14081532 -0.037252463 0.0069507267
000240 c4 f2 b9 3b 11 37 a1 3c b2 c0 9e bd 40 89 09 3d
       0.005674692 0.019679578 -0.077515975 0.033578157
000250 8e 5e bd 3d bc 08 9a bc 16 a5 13 3e 04 ec 27 3d
       0.092465505 -0.018802993 0.14418444 0.040996566
000260 2a 0e ad 3d ab ad 0c bd 21 bb 1f 3e a3 7e c5 bd
       0.08449967 -0.03434531 0.15598728 -0.09643295
000270 5d 7f dd bd 90 f9 9a bd d8 c2 93 3d 5b 4b 00 bc
       -0.10815308 -0.075671315 0.07214898 -0.007830466
000280 91 ef 96 3d e7 53 9a 3c d3 d9 4b bd ea 52 3a 3d
       0.073699124 0.018838836 -0.04976828 0.04548923
000290 d5 1e 1e bd 1c e6 d3 bb dd 4c ec 3d 5c 72 e4 3d
       -0.038603622 -0.00646664 0.11538098 0.11154625
0002a0 62 ea 5e 3d 75 81 03 bd 5d 34 a4 3d d0 04 aa bd
       0.054422744 -0.03210588 0.080178 -0.08301699
0002b0 44 f6 6a 3d 0a 3d 0d 3e 81 9f 96 bd 6e 4f ca bc
       0.057363763 0.13792816 -0.07354642 -0.024696078
0002c0 8e 03 ac 3d 51 4c 94 bd c3 74 24 3e ba 30 ab bd
       0.083991155 -0.07241119 0.16060166 -0.08358903
0002d0 35 be c2 3d ca b7 5c 3d 6f 6e 96 bd 6b b1 61 3d
       0.09508935 0.053886212 -0.07345282 0.05510084
0002e0 44 b8 70 bc 0c f3 3e bd 86 e2 dd 3c 47 d1 76 3d
       -0.01469237 -0.046618506 0.027085554 0.060258176
0002f0 bc 67 57 3d 03 bd 80 3d 0f db 22 3e ab b7 20 3d
       0.052589163 0.06286051 0.15903877 0.03923766
000300 32 99 95 3d af 0b 6d 3d 97 a9 6f 3d 4f 08 82 3d
       0.0730461 0.05787247 0.058511343 0.06349241
000310 f1 7a 15 3d 1f bf 19 3e b1 92 ad 3d eb 57 ca bd
       0.0364942 0.15014313 0.08475245 -0.0988005
000320 b5 e1 bf 3c 82 d8 28 bd 53 c4 ab bc 91 5b ca bc
       0.023423055 -0.041222103 -0.020967638 -0.024701865
000330 8b 71 50 bb 88 83 08 3c 4d e3 2f bd 71 15 56 bd
       -0.0031805958 0.008332141 -0.04294138 -0.052266542
000340 d8 d2 e9 bb c0 a3 a5 3d be d4 95 bd 76 0d 81 bb
       -0.0071357302 0.080878735 -0.07315968 -0.0039383722
000350 4b 60 60 3d 0d 68 72 3c 77 c2 49 bd 7b 82 1c 3d
       0.054779332 0.014795315 -0.04925772 0.038210373
000360 8c 48 62 bb 87 f0 47 bc c3 d0 af 3d 19 45 09 bd
       -0.0034528105 -0.012203342 0.0858474 -0.033513162
000370 ad 34 46 bc ea 1a d4 3b c3 e1 00 3d de 57 7a bc
       -0.01209752 0.006472935 0.031465303 -0.015279738
000380 04 8d a7 3d 81 3f 8d 3d 47 13 54 3d 6c 4e 54 3d
       0.081811935 0.06896878 0.051776197 0.0518326
000390 80 7e bc 3d 77 be 46 bd 07 fe 19 3d c9 d0 83 3d
       0.092038155 -0.048521485 0.037595775 0.06436307
0003a0 d1 3c 20 bd 93 57 ac 3c 05 03 aa 3d b1 61 86 bd
       -0.0391205 0.021037852 0.08301357 -0.06561602
0003b0 9d 50 0f bd c9 ab 91 3d a5 9c fc 3c ba 4d 5e 3c
       -0.03498899 0.071128435 0.030836413 0.013568336
0003c0 c4 77 39 3d 86 02 c4 3d a0 7a 06 bd 74 94 5e bd
       0.045280233 0.09570794 -0.032831788 -0.054340795
0003d0 56 76 1a bb ab f9 aa 3c a5 f9 95 bd 68 ea 71 bd
       -0.002356907 0.020871004 -0.073230065 -0.059061438
0003e0 37 da bc 3d f2 e5 54 bd 4e 24 8f bd c9 97 87 3d
       0.09221309 -0.051977105 -0.069893464 0.066207476
0003f0 5d 7c d7 3d 9c 9f 9d 3d bd 07 12 bd 99 13 6a 3c
       0.10521767 0.07696459 -0.03565191 0.014286899

lstm.weight_ih_l1 f4 [400, 100]
000000 b7 53 d0 bd 0d 04 06 3e 91 1a c1 3d bd 71 1c 3e
       -0.10172217 0.13087483 0.09428895 0.15277763
000010 97 b9 64 bd d4 d3 34 3e 6e 5e e9 bc 0f 6d 95 3d
       -0.055841055 0.17658931 -0.02848741 0.07296192
000020 96 9d 11 bc 84 9d 65 3e 5b 96 eb 3d d2 d6 d3 bd
       -0.008887669 0.22423369 0.115032874 -0.10343708
000030 e7 f9 d4 bd 0b 12 82 be f7 ab 3f 3e 43 39 2d be
       -0.103992276 -0.2540439 0.18717943 -0.16916375
000040 7d 2b dd 3d 31 72 5c ba 3c 1a 15 3e bc 99 1f 3e
       0.1079931 -0.000840935 0.14560789 0.15585989
000050 34 7a a1 be 51 6f ac be bc 36 0f be af 48 f7 bc
       -0.31538546 -0.33678678 -0.13985723 -0.030186025
000060 1e d5 7f bc df f6 42 3e ee 77 31 be cb 0e 02 be
       -0.015614776 0.19039486 -0.17330906 -0.12700956
000070 fa 74 3c 3e 82 0b 15 be bd 2d 05 be 41 bd 41 be
       0.18403998 -0.14555171 -0.13005729 -0.18919851
000080 c3 00 2d 3c 21 28 df bd 16 ac 13 be 43 c1 84 bd
       0.010559264 -0.10896326 -0.14421114 -0.06482174
000090 3e c3 e4 3d 71 be 20 be c7 82 67 bd 42 6d 3d 3e
       0.11170052 -0.15697648 -0.056521203 0.1849871
0000a0 e7 3f d7 bc 46 04 c3 3d 47 31 c0 3d c8 f5 da bd
       -0.026275588 0.095222995 0.09384399 -0.1069141
0000b0 be 6f 39 bd 58 58 63 bb 8a db a6 be e7 0a 56 3d
       -0.04527258 -0.0034690108 -0.3258937 0.05225649
0000c0 42 15 2c bd 43 5e 39 3c 9e a1 9f be 5e 8c e7 bd
       -0.04201246 0.011313978 -0.31177992 -0.1130607
0000d0 a9 e5 ef 3c f8 ac 3d bc b9 34 89 3d 7d bb 79 bd
       0.029284315 -0.0115768835 0.06699509 -0.06096982
0000e0 19 f3 b2 bb 12 c8 3d 3e 37 64 b6 bd 5e e9 20 bd
       -0.0054611084 0.18533352 -0.08905833 -0.039285056
0000f0 78 fd 54 3e de 7b 4f 3d dc 3b 9b bd db 18 2c 3e
       0.20799816 0.05065524 -0.07579777 0.16806357
000100 b3 50 ab 3d 32 16 32 bd 13 2b a5 3c 5d 2a 85 3d
       0.083650015 -0.0434782 0.020162141 0.06502221
000110 af 95 08 3d 57 f9 d9 3c fd 84 a5 3d e7 36 33 be
       0.033345874 0.026608152 0.08082006 -0.17501412
000120 5f 6b cd bd 0f bb 96 bd f2 55 28 bb 3f ca 52 bb
       -0.10030245 -0.07359897 -0.0025685993 -0.0032164005
000130 78 83 d9 3c 46 b4 b6 bd 5b 15 77 3e 9b 71 9d 3d
       0.026551947 -0.08921103 0.2412924 0.07687684
000140 73 52 7c bb 51 11 24 be 03 46 b6 bd 0f 1f 74 be
       -0.0038501292 -0.1602223 -0.089000724 -0.23839973
000150 11 3a 07 3e 6c 04 9c 3d 69 a5 0b 3d 05 c4 0f bd
       0.13205744 0.07618031 0.034093294 -0.03509905
000160 02 9c 0a 3e b0 f5 ea 3d 89 74 84 3d 02 26 fb 3d
       0.13536075 0.114726424 0.0646754 0.12263109
000170 0a b6 93 bd 1c 17 17 bd 97 e8 20 bd a3 e1 cb 3d
       -0.072124556 -0.036887273 -0.039284315 0.09955146
000180 ac 67 53 be 19 59 34 3e 0c 78 71 3d 69 75 01 3e
       -0.20645016 0.17612113 0.058952376 0.12642445
000190 39 26 21 be 27 38 cd bc 53 14 5f 3e 78 c7 86 3d
       -0.15737237 -0.02505119 0.21785097 0.065810144
0001a0 f6 27 5c bd d5 64 5d 3e 08 c8 a7 3d c8 bd 6a bc
       -0.053749047 0.21620496 0.0819245 -0.014327474
0001b0 30 14 ce bc 5b ee 6f bc 79 73 fe 3d 0a 96 08 be
       -0.02515611 -0.014644231 0.124243684 -0.13338485
0001c0 4f 8d 0e be e5 36 21 3d 63 a2 31 3d 49 f1 87 bd
       -0.13921092 0.039358992 0.043367755 -0.06637818
0001d0 42 ff 1b bd 18 93 84 3e bb cd 8a bd d0 77 4c 3e
       -0.03808523 0.25893474 -0.06777521 0.1996758
0001e0 ab 4e af bc 4c d9 8f 3b f1 6e 22 be 67 82 d1 3d
       -0.021399816 0.0043899175 -0.15862633 0.102299504
0001f0 b0 9b 6d bd b6 35 f9 ba a2 fc 21 3d a8 ad 08 be
       -0.058009803 -0.00190132 0.03954757 -0.13347495
000200 4d c0 ea 3c 11 31 3e be 36 c2 ab bd 5e 3b 5e be
       0.02865615 -0.18573405 -0.08386652 -0.21702334
000210 ef c1 f6 bd d4 1b 0d bd ed 28 97 bd 3d d5 f7 bd
       -0.12048709 -0.034450367 -0.07380853 -0.12101219
000220 4b 0a 2d bb bb f0 69 bd 43 70 bc bd fe 28 fc 3d
       -0.002640384 -0.057114344 -0.092011 0.12312506
000230 6a c0 90 bc 98 8a 6f 3d c8 a0 e4 3c 7a d1 01 bd
       -0.017669875 0.058481783 0.027908698 -0.031693913
000240 7c 1c 8f bd a7 79 b7 be 77 40 87 3e 76 37 0c bb
       -0.06987855 -0.35835 0.2641637 -0.0021395362
000250 51 a3 76 bd a8 e3 82 3d 6e 20 bb 3c 1b 17 5d 3e
       -0.060214344 0.06391078 0.022842612 0.21590845
000260 74 8f bf 3b c2 6a 4c bd 46 7d 00 3e 06 44 18 bc
       0.0058459584 -0.0499065 0.12547788 -0.009293562
000270 25 54 ae 3e ed 00 e7 3d f0 1c 4b 3e 6f 0c 7d 3d
       0.34048572 0.112794735 0.19835258 0.061779436
000280 8b 16 37 3d f3 51 15 be 1f 6b 36 be fa ee 28 3d
       0.044699233 -0.14582042 -0.17814301 0.04124353
000290 f3 da 5e 3e 6e 4f a4 bd 2a 32 29 bd a1 32 fe bd
       0.2176321 -0.080229625 -0.041307606 -0.124120004
0002a0 44 04 ce 3d 79 6b 38 3d 96 d6 5e 3e 06 ac a6 3c
       0.10059407 0.04502437 0.21761546 0.020345699
0002b0 bc 35 a1 3c ad 08 06 be d7 e9 52 3d b7 2e a1 be
       0.019678943 -0.13089247 0.05149254 -0.31480953
0002c0 89 40 c9 bd e1 df d8 3d e9 e2 10 be db 82 0a 3e
       -0.09826762 0.105895765 -0.1414906 0.1352648
0002d0 9d f1 5d 3e b4 53 f7 3d 24 b2 ff 3c 97 d4 a1 3c
       0.216742 0.12076512 0.031212874 0.019754691
0002e0 7e a6 63 3c 49 c2 36 3d 83 12 76 3e 8a 4c 2b 3e
       0.013894675 0.04461888 0.24030499 0.16728416
0002f0 4a 37 9f bc 0b 5c 2b be d0 84 ad 3d ab f7 a2 be
       -0.019435544 -0.1673433 0.084725976 -0.3182958
000300 1e 91 1f bd 6e 59 58 3d ef a5 37 be 9e 45 5f bd
       -0.038956754 0.05281966 -0.17934392 -0.05450975
000310 9b 02 4e be f8 45 37 be dc 45 ee bd 62 07 f3 bd
       -0.20118181 -0.17897785 -0.11634418 -0.118666425
000320 a8 79 e6 bb 1e 97 2d be b8 07 bc bd a2 47 9f bc
       -0.0070335455 -0.16952178 -0.0918116 -0.019443337
000330 20 5a 23 3d 25 d6 36 be aa c4 fa 3d 5b 1f ef bd
       0.03988087 -0.17855127 0.12244542 -0.116759025
000340 75 7b 80 bd 0f 20 24 bc 3e 96 39 bc bc 0d a8 bd
       -0.062735476 -0.010017409 -0.011327324 -0.082057446
000350 22 d6 da bc 16 85 9d 3d 12 95 af 3c 86 ff 0a 3e
       -0.026713435 0.076914 0.021433387 0.13574037
000360 02 64 29 3c ce 4b 4b ba 00 2d 71 3d ed c6 82 3d
       0.010338785 -0.0007755131 0.058880806 0.06385598
000370 f3 83 dd 3b 24 be 63 be 5d b2 61 bd 58 17 e7 bd
       0.0067601143 -0.22240502 -0.05510174 -0.11283749
000380 fa 0f 85 bd 96 85 f8 3d 63 79 00 be ff 0e 37 3e
       -0.06497188 0.121348545 -0.12546305 0.17876814
000390 24 5c a3 3d bd 81 d2 bd 17 e3 3b bc 92 aa 1d 3e
       0.07976559 -0.10278652 -0.011467717 0.15397099
0003a0 12 8b c4 bd 3a 82 b5 bd 98 1b aa 3c ae e7 99 3e
       -0.09596838 -0.08862729 0.02076511 0.3005957
0003b0 cf d1 4e 3d 71 f5 51 bd 93 98 27 bc 47 19 82 bd
       0.050493058 -0.05125946 -0.010229248 -0.063524775
0003c0 89 28 91 bd 18 00 4e 3e 8f 3a dc 3d 9d 43 b3 3d
       -0.070878096 0.20117223 0.10753357 0.087531306
0003d0 02 b5 a6 3d a8 ed 9a 3e 36 60 9c 3d 35 e7 17 3e
       0.08139993 0.30259442 0.07635538 0.14834292
0003e0 00 72 1f 3d e7 c4 36 be 27 48 f5 bd 1f 3f 31 3d
       0.03892708 -0.1784855 -0.119766526 0.043273088
0003f0 45 17 2a bb 2d 4b 61 3e b5 27 9f bd 7b e4 d4 bd
       -0.002595381 0.22001334 -0.077712454 -0.10395142

lstm.weight_hh_l1 f4 [400, 100]
000000 5c 1c 23 3d 9d 24 51 bc 17 e2 33 3c 6e c5 89 3d
       0.039821967 -0.012765077 0.010979197 0.0672711
000010 fe c4 d0 bc 10 3d 55 3e ea 8b 1d 3d 6b 9b 5f 3c
       -0.025484558 0.20824075 0.03846351 0.013647894
000020 ef 44 8f 3d be cc c5 3d 86 63 37 3e 32 2b 22 be
       0.0699557 0.09658192 0.17909059 -0.1583679
000030 e1 4e 10 3d be 0a b0 bd f6 5d 0e be 30 6a 23 3e
       0.035231475 -0.08595799 -0.13903031 0.15958476
000040 8d 51 af 3c 85 23 cf 3d c4 39 02 be 04 12 70 bd
       0.021401191 0.10114197 -0.12717348 -0.05861093
000050 33 83 4c bd 43 a9 1b 3a 4c f1 ac bd 87 47 39 bc
       -0.04992981 0.0005938003 -0.08444461 -0.011308557
000060 85 80 52 bd 7f ab 15 be dc 6b 32 be 43 42 22 3e
       -0.051392097 -0.14616202 -0.17423958 0.1584559
000070 d9 21 a5 3d 63 a2 6d bd b2 75 3c be e4 50 ae 3c
       0.080630966 -0.058016192 -0.18404272 0.021278806
000080 ae c2 c3 bd 56 f8 56 3e 30 fb 04 be 15 91 69 3e
       -0.095586166 0.2099317 -0.12986445 0.2280925
000090 e2 9a 27 3e cd 54 c5 bb c6 2e 1e 3e 27 3e 5e bd
       0.16367677 -0.006022072 0.1544753 -0.05425849
0000a0 36 b9 54 3d 0c 63 43 3d de f0 15 3d 67 27 94 bd
       0.051934443 0.04770188 0.036606662 -0.07234078
0000b0 a8 2b 64 bd a5 b4 23 3e 45 0f 15 be d5 63 66 bd
       -0.055705696 0.15986879 -0.14556606 -0.05624755
0000c0 f8 07 23 be 79 c9 0c 3e 7f 64 9a 3a 34 4c 29 3e
       -0.15921009 0.1374873 0.0011779218 0.16532975
0000d0 a0 b1 0b bd b5 b0 9f bd 01 2a 41 bd d4 5b fb 3d
       -0.034104943 -0.07797376 -0.0471592 0.12273374
0000e0 37 00 97 bd ba 7a 11 bd 22 2f 59 bd e7 d0 bd bd
       -0.07373088 -0.03551743 -0.053023465 -0.092683606
0000f0 79 40 d6 3c 8f 21 ab 3d 19 4d ac 3c fe c7 aa 3c
       0.02615379 0.0835601 0.021032857 0.020847317
000100 95 37 7a 3d 4c 74 e4 3d 2b b8 8b bd 72 4d f6 3b
       0.061088163 0.11154994 -0.068222366 0.0075165564
000110 18 19 28 3e 09 2e 0e be 64 f4 b8 bc f0 27 cc bd
       0.16415823 -0.13884749 -0.022577472 -0.09968555
000120 f0 35 c8 3d fb de 1d bd 01 43 7c bd 1f e3 10 3e
       0.09775913 -0.03854273 -0.061587337 0.1414914
000130 1f 50 6d 3d 06 02 3c bc b9 c1 90 bd 58 cb 2d be
       0.057937738 -0.011475092 -0.070682 -0.169721
000140 f7 46 8a 3d 52 7e 2c 3d d3 82 1b be 5e 9f ad bc
       0.06751817 0.042112656 -0.15186624 -0.021194156
000150 a7 44 ef 3c 95 60 22 3b d4 4b d5 bd 0b be 90 3d
       0.02920754 0.0024776806 -0.10414854 0.07067498
000160 b0 99 ba 3d 19 06 0e 3c 90 9e 3c bd 1f 4a 91 bd
       0.09111345 0.008668446 -0.046049654 -0.070942156
000170 b4 f0 b3 bd 96 89 c4 bd 03 85 2b 3e 4c be b2 3c
       -0.08786145 -0.09596555 0.16749959 0.021819256
000180 bd ba d1 bc b3 41 d1 bd 7d 24 e9 3c 71 c6 6a 3d
       -0.025601739 -0.10217609 0.028459782 0.057318155
000190 34 7f 8e bd 2f 1f 64 be 86 97 46 3c cb 2b 05 be
       -0.06957856 -0.2227752 0.012121087 -0.13004987
0001a0 ff b1 7f 3d 3d 70 1e be ac ff e0 bc c2 3d f5 3d
       0.06242561 -0.15472503 -0.027465664 0.1197467
0001b0 9a 17 16 be 3e 07 49 bd dd 5b 2b be 50 2d 25 3d
       -0.14657441 -0.049079172 -0.16734262 0.040326416
0001c0 93 ab 59 bd aa b5 03 3e e2 d0 96 3c 0f 21 cf 3d
       -0.05314214 0.12862268 0.01841015 0.10113727
0001d0 83 0d 79 bd 96 aa cd 3d fa ea 32 3d 73 9a 21 be
       -0.0608039 0.10042302 0.043681122 -0.15781574
0001e0 e0 5f 7f 3d ae ba 3b 3d 06 6d a9 3d c1 48 8e 3c
       0.062347293 0.04583233 0.08272748 0.017368676
0001f0 e5 ea 31 3d f3 bb 41 3e 99 57 2f be eb 39 82 bd
       0.043436904 0.18919353 -0.1712326 -0.06358703
000200 a4 c9 fc 3d 74 1c 8a bc 44 0b b7 3d 1b f3 1e 3e
       0.123431474 -0.01685927 0.089376956 0.15522425
000210 e0 c2 f4 bd 25 14 b2 3d bf 44 1e 3d 5f 04 75 3c
       -0.11951232 0.086952485 0.03863978 0.014954655
000220 24 a8 08 be 34 d9 e9 3d 80 6b c7 3d e6 10 24 3e
       -0.1334539 0.11418381 0.09737301 0.16022071
000230 e0 91 b8 bd 3f 00 ab bd 24 7d 39 be 7c 1a d8 3c
       -0.090121984 -0.08349656 -0.18114144 0.026379816
000240 1a 6c bb 39 42 3b 27 3e a6 d0 0e 3e fb 75 af bc
       0.0003574796 0.16331199 0.1394678 -0.021418562
000250 ec 93 b9 3d 07 24 26 3d 9a c5 2c bd a1 b1 d1 3d
       0.09061417 0.040561702 -0.042180635 0.10238958
000260 5d 66 84 bd 68 be 2a bc 99 09 9e 3d 82 3f 04 3e
       -0.06464837 -0.010421373 0.07716674 0.12914851
000270 08 f7 9c bd 1f b0 ac 3d 95 19 08 3d e0 50 f3 bd
       -0.07664305 0.0843203 0.033227522 -0.1188066
000280 e6 5a 21 3c 3e d7 36 3d eb bf 2c 3e 1b e5 41 bd
       0.009848332 0.044638865 0.16870086 -0.047337633
000290 88 a6 96 bd 21 e5 b3 bd 35 26 77 bd 77 fb dc bd
       -0.07355982 -0.08783937 -0.06033917 -0.107901506
0002a0 66 ea ac bd c2 b8 c0 bc ef c1 36 3d a7 07 ad bd
       -0.084431455 -0.0235256 0.044618543 -0.08448725
0002b0 65 d2 87 bd cd b1 9b bd 63 a9 f8 bc cd 7d cd bc
       -0.066319264 -0.07602272 -0.030354207 -0.0250844
0002c0 f9 d3 8b 3d a8 50 97 bd 94 d3 af 3d 50 ed 22 3d
       0.0682754 -0.07388431 0.08585277 0.0397771
0002d0 1b df a5 3d af f0 c9 bd 34 e0 01 3e 1c 50 eb bc
       0.080991946 -0.0986036 0.12683183 -0.028724723
0002e0 21 d6 6d bc 3e b1 f5 3d a1 2b e4 bd be 64 b1 3d
       -0.014516384 0.11996697 -0.11141134 0.08661793
0002f0 06 03 e5 bc fe 9f 00 be 15 3f 1c bd 1a 17 12 bd
       -0.027955543 -0.12561032 -0.038146097 -0.035666563
000300 69 e6 91 3d 26 93 e8 3c 05 bc d2 bd e3 96 e8 bd
       0.071240254 0.028390478 -0.10289768 -0.11356904
000310 e5 e1 93 bc b7 91 e3 bd 30 40 38 3d 0a f7 81 3d
       -0.01805205 -0.11111777 0.04498309 0.06345947
000320 cc a4 1d 3e 86 92 47 bd 5c d5 00 3d 07 67 1d bd
       0.15394896 -0.04872372 0.031453475 -0.038428333
000330 46 bf 7a 3d 61 13 f8 3c 38 0d 15 3e c9 fa a4 bd
       0.06121757 0.030282678 0.14555824 -0.08055646
000340 6a fb 3f bc b2 72 65 bd 72 c4 92 3d f3 62 9a 3d
       -0.011717657 -0.056017585 0.07166375 0.07538404
000350 07 5c dd 3d f0 85 e0 bd 0e 79 7a bc cf f2 db 3d
       0.108085684 -0.109630466 -0.015287651 0.107396714
000360 08 14 98 bd 6d a0 bc bd a8 ab 47 bd 58 49 2a be
       -0.07425696 -0.09210286 -0.04874769 -0.16629541
000370 04 7d 04 bd 97 38 0c 3d 9e aa ae 3d 5e b9 75 3d
       -0.032345787 0.034233656 0.085286364 0.059991233
000380 17 b2 ad bc a9 3b 20 bd 7a 9b 09 bc a8 eb cc bd
       -0.021203084 -0.039119396 -0.008398885 -0.10005885
000390 e9 f7 ed bd bf 77 31 be d8 b9 84 bd 9b 7a 9e 3d
       -0.11619551 -0.17330836 -0.064807594 0.07738229
0003a0 f9 a6 c3 bd 65 e3 ad bb 63 57 92 be 1e 64 20 3d
       -0.09553332 -0.0053066486 -0.28582296 0.03915798
0003b0 66 ad 34 3e 95 c9 38 be d2 1f 2a 3e 71 47 b1 bc
       0.17644271 -0.18045647 0.16613701 -0.021640511
0003c0 21 e2 8b bc 44 6e cd 3b 29 d4 a1 3d 60 bf 79 3e
       -0.0170756 0.006269248 0.079017945 0.2438941
0003d0 16 9e cb bd 58 bd 37 3e a1 cc 07 be b5 48 29 be
       -0.09942262 0.17943323 -0.13261653 -0.16531642
0003e0 da 84 05 be 53 8d 06 be 70 ab 32 be 72 7f e1 3b
       -0.1303896 -0.13139848 -0.1744821 0.0068816477
0003f0 67 ab 3b be c3 42 96 3c f7 c0 1a 3e de 74 97 bc
       -0.18327104 0.018342381 0.15112673 -0.018488344

lstm.bias_ih_l1 f4 [400]
000000 ec d9 1e 3e 55 f4 9b bd 16 69 ab 3d 66 43 a7 3b
       0.15512818 -0.07614962 0.08369653 0.00510447
000010 57 48 d1 bc cf d2 01 3d fa 4a 84 3d 0a e8 00 bb
       -0.02554719 0.031695183 0.06459613 -0.0019669556
000020 0a 86 ff 3d d2 92 42 bd ae 1e ee bc aa c9 b5 bd
       0.12476738 -0.0475033 -0.029067364 -0.08876355
000030 8a 49 41 3e fe f2 a6 bd bf f3 d5 bd e1 4d 24 bd
       0.18875709 -0.08151816 -0.104468815 -0.040113334
000040 ed 68 c1 bd 26 0d 77 3d 72 13 6f bc 8f 97 64 3d
       -0.09443841 0.060315274 -0.0145920385 0.0558086
000050 f9 41 8f 3d b1 29 60 3d aa bc f6 3d c2 f6 ca bb
       0.06995005 0.05472726 0.120477036 -0.0061939666
000060 28 44 74 bc d4 27 da 3c b6 8f c0 bd b1 4d 8b 3d
       -0.014908828 0.02663032 -0.09402411 0.06801928
000070 9e d9 c2 3d be fd 0f 3e c5 f7 35 be 4a a8 51 3d
       0.095141634 0.14061639 -0.17770298 0.051185884
000080 95 8d 9f bd 13 d8 58 3d ce 14 18 3c 63 0f 6a 3c
       -0.077906765 0.05294044 0.009282304 0.014285895
000090 e0 96 56 bd 5f de 03 3e b4 97 d3 bd 59 76 bf bc
       -0.05238998 0.12877797 -0.103316694 -0.023371862
0000a0 18 b0 63 bd e9 cd 43 3e 02 c1 d9 bc e7 7a 3f 3d
       -0.055587858 0.19121517 -0.026581291 0.04674807
0000b0 db 35 bf bc 78 9f e0 3c 73 36 09 3d c8 49 2b 3e
       -0.02334111 0.02741979 0.033499192 0.16727364
0000c0 1b e1 b7 3d 5d b2 82 bd 8b 50 65 3d 0e 4c 3e 3c
       0.08978482 -0.06381676 0.055985015 0.011614813
0000d0 82 f4 97 3c 5f 9b c1 bb 67 c3 92 3d 82 77 3a bd
       0.018549208 -0.0059084143 0.07166176 -0.045524128
0000e0 f4 33 fb bb 25 2b 99 3d 8a 49 ea 3d 4c 69 95 bd
       -0.0076661054 0.07478932 0.11439808 -0.072954744
0000f0 0b 65 dd 3d bd 83 27 3e 97 6e a5 3d e9 aa a2 3d
       0.10810288 0.16358848 0.08077734 0.07942755
000100 34 82 b4 bd 5a 11 f6 3c b1 63 5c 3e 09 7d cb bc
       -0.08813897 0.03003757 0.21522404 -0.024839895
000110 15 75 42 3d f8 fc 2f be de 4d 82 3e ce 9a 81 bc
       0.04747494 -0.17186344 0.25450033 -0.015820887
000120 28 ee 6b 3c a9 d8 9a bc 58 59 83 3d 3d 8e e2 bd
       0.014400043 -0.01890214 0.06413525 -0.11062286
000130 ac 8e 02 3d f2 26 6e 3d 87 ab e8 bc bb 27 2f bd
       0.031874344 0.05814261 -0.028402103 -0.0427625
000140 8a b3 e0 3d a3 ed af 3d 08 73 e9 bd 05 9b 8c 3c
       0.10971744 0.085902475 -0.113988936 0.017163763
000150 b1 f0 7a 3d 71 ce 1f 3e ea cb 4a 3c f3 03 e5 3c
       0.061264697 0.15606095 0.012377718 0.027955985
000160 5b cc 22 3c 7c 8b 6e bd fa ec 6a bd f6 b5 25 3d
       0.009936417 -0.05823849 -0.057354905 0.040456735
000170 06 e4 e0 ba b3 e7 2c 3d 69 f4 76 3e 83 1e 0e bc
       -0.00171578 0.042213153 0.24116673 -0.008674267
000180 28 6f e2 3d a4 6f 44 bc 65 6a cb 3c d5 ad 38 3d
       0.110563576 -0.011989508 0.024831006 0.045087654
000190 a9 17 1e 3e 3b 7b b4 3d 25 fb 06 3d df e1 bf 3b
       0.15438713 0.08812567 0.032954354 0.0058557834
0001a0 f4 82 b4 3d a5 6f fa 3d b0 57 e0 3d 11 fe 37 3e
       0.0881404 0.12228326 0.10954225 0.17968012
0001b0 1a 92 8d 3d 53 90 60 3d 99 43 b9 3d f1 20 f5 3d
       0.06912632 0.05482514 0.09046096 0.11969174
0001c0 ae 17 49 3e 5e 83 90 3c d6 61 43 bd d2 55 d6 3d
       0.1963794 0.017640766 -0.047700725 0.10465588
0001d0 15 24 41 bd 3d 96 fb bc 4b a9 9a 3d 4a 20 2e 3e
       -0.04715355 -0.030711288 0.07551821 0.17004505
0001e0 ef a9 62 bd fd 89 cf 3d 13 0d 1a 3e e5 9a a6 3c
       -0.055337843 0.10133741 0.1504405 0.020337531
0001f0 96 1c 2e 3e 4e f3 05 3d a7 e8 80 bd 39 09 f2 3c
       0.17003092 0.032702737 -0.06294375 0.029545413
000200 19 0b ac 3d 79 96 a3 3d 6b c4 8d 3e b2 92 95 3d
       0.08400554 0.07987685 0.27688918 0.073033705
000210 88 64 62 3c 96 29 4c 3d 27 b6 36 3d a8 08 f3 3d
       0.013817914 0.049844347 0.044607308 0.118668854
000220 74 06 00 3e 96 88 2c 3e 39 4d 00 3e ff 28 27 3e
       0.12502462 0.16848978 0.12529458 0.16324233
000230 0e f1 3f 3e d7 a0 e4 3d 4d e8 d0 3d 46 d2 28 bd
       0.18744299 0.1116349 0.10200558 -0.041216157
000240 0e 90 25 bb 14 a6 95 bd 5c 23 3d 3e d5 76 59 bd
       -0.0025262865 -0.073070675 0.1847052 -0.053091843
000250 fd ad 83 3a 89 6c a6 3d b9 6f 3b 3e e5 d2 c4 3d
       0.0010046359 0.0812617 0.18304338 0.096105374
000260 3d 87 a0 3d 92 90 a1 3d c4 88 0f 3d 9c cc c5 3d
       0.07838295 0.07888903 0.03504254 0.09658167
000270 8c 00 29 3e ed c9 0b 3e 4e e3 54 3d 86 27 fe 3d
       0.16504115 0.13651247 0.051974587 0.12409882
000280 c0 9f 52 3e 4f d3 34 3e 4f d4 fe bc 72 2e e3 3d
       0.20568752 0.17658733 -0.031107096 0.11092843
000290 c7 35 4d 3d 02 2f 82 3b 7b 55 5f 3d 3c 87 00 3e
       0.050100114 0.003972889 0.05452488 0.12551588
0002a0 26 dc b2 3d 1b 62 00 3e 2d 4c 26 3e 73 9f f3 3d
       0.08733396 0.12537424 0.16239996 0.11895647
0002b0 cb c0 15 3b 00 93 7c 3d 3b b7 db 3b ff 36 09 3e
       0.002285051 0.061663628 0.0067051924 0.13399886
0002c0 3c d5 94 3d b8 bf 44 3e c6 42 88 3d 0b 20 1c 3e
       0.07267234 0.1921376 0.06653361 0.15246598
0002d0 24 04 f1 3d b0 91 3d 3e 3d 18 e4 3d f6 c8 a1 3c
       0.11768368 0.18512607 0.111374356 0.019749146
0002e0 02 22 50 3d 23 8d d7 3d 2f 90 49 3e 34 24 24 3e
       0.050813682 0.105249666 0.19683908 0.16029435
0002f0 d0 c1 24 bc 29 34 1b 3e 64 28 ee 3c e0 70 f0 3d
       -0.010055974 0.15156616 0.029071994 0.11740279
000300 a6 4d 0d 3d 6a 81 8b bc 44 46 40 3e 3b ad e7 3c
       0.03449788 -0.017029483 0.18776804 0.028280845
000310 c8 0a b6 3d 24 3d 36 3d bf 3c bc bb 95 d1 71 3d
       0.08888775 0.044491902 -0.005744546 0.059037764
000320 e5 19 19 3c d1 1c ab 3d 17 49 07 3d eb c5 10 bd
       0.009344553 0.08355106 0.03302869 -0.035345
000330 85 f2 92 bc 7a a4 9b 3d 66 6c b3 bc 48 22 30 bd
       -0.017937908 0.07599731 -0.021902274 -0.043001443
000340 79 00 a0 3d 59 8d fa 3c f5 de 4a bd a0 08 b1 bc
       0.0781259 0.030584978 -0.049529035 -0.021610558
000350 d3 39 56 3d 21 c0 68 bd cf ab 90 bd 4a 08 89 3c
       0.05230124 -0.056823853 -0.0706402 0.016727585
000360 3d 2b 97 bd 75 37 7e bd 58 b4 0a bd a5 d3 a1 bd
       -0.07381294 -0.062064607 -0.033863395 -0.07901696
000370 51 45 cf bd bb bb 3e bc 37 a1 8c bd 0b 01 3b bd
       -0.10120643 -0.011641438 -0.06866687 -0.04565529
000380 70 5e 9b bd d7 e6 5b bd a9 4e 45 bd ee d3 49 bc
       -0.07586372 -0.053686943 -0.04817072 -0.012318594
000390 b2 38 6a bd 3b 60 aa bd 7e ed 88 bc 3d 54 f8 3c
       -0.057182975 -0.08319136 -0.016714808 0.030313605
0003a0 0b 5f 88 3b 23 a7 7b 3d db 46 22 3d d0 b4 93 3d
       0.0041617206 0.06143869 0.039618354 0.072122216
0003b0 fe 3c 4d bd c8 50 8d bc 63 09 78 3d 2e 2f 84 3c
       -0.050106995 -0.017250434 0.060555827 0.016135778
0003c0 88 96 91 bd c8 d8 b3 3c 8b 6a 62 3c 88 fb 54 3d
       -0.0710879 0.021953955 0.013819347 0.05199769
0003d0 da 6e 1e 3d 8e 35 2c 3c c8 3a b5 bd 2d 6f 08 3d
       0.038679935 0.010510815 -0.08849102 0.03330915
0003e0 a8 61 d5 bd e1 fc 33 3d e2 ed 91 bd ec b3 c5 3d
       -0.10419017 0.043942336 -0.07125451 0.09653458
0003f0 0e 1b 33 bd 8f 49 c5 bc 54 30 f5 bd 07 9e 43 3d
       -0.043726973 -0.024082927 -0.119721085 0.04775813
