rnn_20141393.pth (torch, 138951 bytes, 10 tensors)

rnn.weight_ih_l0 f4 [100, 28]
00000000: bc9a 04be ce1f abbd ec80 f23d ebe8 533d
00000010: f1be 2c3e 523d 08bd dc21 7bbd 0552 96bd
00000020: 9b70 a1bc 4c89 103c 6646 a039 e06f 263e
00000030: 4565 d93d dc0d aa3d 3a48 403d 1b5a b3bd
00000040: 93b9 acbd bf8a 1ebd 45a9 acbd c4a1 0abe
00000050: caa5 f6bc 65da da3b 91f9 703c 9d06 f2bd
00000060: 409e 8c3d 4115 82bd f7dd 973d f2f7 95bd
00000070: aada 99bd 30df 3b3e 3dce dd3d cf66 123e
00000080: dcbe 703d b84e 9d3d e1a7 c83d 189d 8dbc
00000090: 6f6e 173d 11a5 2abd d5fe 67bd 157b 64be
000000a0: c54f 8dbe 269e 8dbe e03f 3cbe 9f66 cd3c
000000b0: 0b79 0bbc d09a fa3c 7709 0f3e 470a c23d
000000c0: d021 8f3d f3e2 2b3c 6a98 503d df96 cfba
000000d0: 68eb 21bd 3436 a33d 640e 20bd 0e94 21be
000000e0: a119 89bc 43a6 2cbd d032 24bd a0f8 343e
000000f0: 5e03 ce3d 4e28 443e 4813 1e3e e05a 4b3e
00000100: 4963 0a3e 9449 1e3e 999c 2d3e e244 003d
00000110: f9b7 a33d 2724 923d 4709 ea3c d50d 2dbe
00000120: 443a debd 3455 1b3c b2e1 fabd 1f0e 57bd
00000130: 27e6 273d 2b18 1cbd a39b 193e 4f1b fe3d
00000140: 4022 263e 3e08 7fbc 9afe 153e 9111 29be
00000150: a543 8c3c 1751 1fbd 19be ca3d b704 41bc
00000160: 792a e1bd 8a2f 2ebe 6804 91bd 85af 80bd
00000170: 7673 003c 7143 153c 25c6 1bbe a71e 19be
00000180: 68db e73c 5168 933d 1f9d 8cbd c265 b23d
00000190: 30b3 acbd 42a4 7cbd 20ea cebd 3938 0fbd
000001a0: 2400 cabc d51a acbd e3ea bcbd b7bf 15bd
000001b0: a917 c2bd 6fc5 ccbd 4123 083d c303 70bd
000001c0: 2389 4a3a 67ff 1f3e cc53 423d a554 a03c
000001d0: dc67 e5bd d6dc bfbc bf94 8b3d 2fc8 f9bd
000001e0: 0a6f 2fbd 8fd2 a43d 7ef9 4e3e 6353 083e
000001f0: 9c38 833d 27e4 b9bd 8a8c d1ba ba6e 923d
00000200: ca19 033e 5538 9a3d 6af2 ee3d ba99 883d
00000210: fdd1 263d 4026 0d3e 7cd9 063d 1877 cd3a
00000220: 731c 073e 8ecf 613d e6aa b1bd e52d 603e
00000230: 7ecf 333d 59fb ac3d f73d 053d 83f3 afbc
00000240: b307 483d 5962 1d3d bfcc e13b cd71 b3bd
00000250: 1516 843d eb5c b6ba 7ead b1bd 1217 8c3c
00000260: 7e08 523d 94c1 84be 1a37 96be 54ad 2bbe
00000270: bf44 123d 4515 8abd c676 5d3d 896b 52bc
00000280: 1052 1d3d c6dc 87bd 009f b43d 3cf1 163d
00000290: 2882 d83d ea17 fdbd d8fd e53c bd21 4dbd
000002a0: 3a71 e9bc f5d5 6ebd c09d 883d 88dc ea3c
000002b0: 4298 4fbe 91a0 49be 7f64 81be 1a1d 1fbe
000002c0: 47e6 4fbe b9bc 9bbe ab66 92be e286 a3be
000002d0: de9e 21be b9c3 73bd 45c2 3ebd d295 79bd
000002e0: 6989 14be 9397 ccbd de12 efbd 63c6 e7bd
000002f0: 72a1 96bc 3a20 c1bc dd65 42bd e25b 043d
00000300: 4df0 5a3e 0b15 e53d 35ef cd3d 868e 8cbc
00000310: 553d 813c 4c33 f7bd 5642 ccbd 05d2 51bd
00000320: 150a 353c 5e67 91be 99e8 11be 651a 8cbe
00000330: 553a 99be c381 82be 93f9 96be 3dd1 31be
00000340: 5ed3 4ebd ad94 18bd 8ed1 583d f967 87bc
00000350: e686 993d 1665 f33c 8f0d 1a3e 7f48 ae3c
00000360: 4ccb 083c 6219 9bbd 7518 9fbc 22f0 a63d
00000370: 119b d33d e1fd cfbc 12da ec3c 3097 b8bd
00000380: 9c1a 05bd 1272 a63d e648 9bbd 8821 063d
00000390: 8f26 ed3b b694 a83b adeb aabd 8f3a 2cbe
000003a0: 7ac6 e1bc 8309 f5bc 3907 f3ba 4d46 a83d
000003b0: 8c57 453e 36b8 1e3e 7976 203e 4fe9 763e
000003c0: f04e a13e 73fa ad3e 2b15 263e 0352 793e
000003d0: e07d 883e 0327 af3d 8886 383e 8922 0e3e
000003e0: 5770 143e ce0e aabd 9950 86be 6fde 63be
000003f0: 9638 82ba d11c 863e c399 b6bd 2fa7 3dbd
-0.12949651 -0.08355676 0.11840996 0.0517358 0.16869713 -0.033261605 -0.061311588 -0.07339863
-0.019707015 0.008821797 0.0003057003 0.16253614 0.10615019 0.08303425 0.04694388 -0.08757421
-0.08433833 -0.038706537 -0.08430723 -0.13538271 -0.030108351 0.0066788667 0.014707939 -0.11817668
0.06866121 -0.0635171 0.07415383 -0.073226824 -0.0751241 0.18346858 0.108303525 0.14297031
0.058775768 0.0768103 0.09797645 -0.017286822 0.036970552 -0.041661326 -0.05663951 -0.22312577
-0.27599922 -0.2765972 -0.18383741 0.025073348 -0.008512746 0.030591398 0.13968454 0.094746165
0.06988871 0.010491121 0.050926603 -0.001583781 -0.03953114 0.07969323 -0.039076224 -0.15779135
-0.016735854 -0.042150747 -0.04008752 0.17672968 0.10059236 0.19156 0.15437043 0.19858885
0.13514437 0.15457755 0.16954269 0.03131569 0.079940744 0.07135802 0.028568877 -0.16899808
-0.10850957 0.009480763 -0.12250079 -0.0525037 0.040990975 -0.038108986 0.15000777 0.124075525
0.16224003 -0.01556593 0.14647904 -0.16510607 0.0171221 -0.038895693 0.098995395 -0.011780909
-0.10994429 -0.17010322 -0.070809186 -0.06283478 0.007840028 0.009110318 -0.15212305 -0.14953099
0.028302863 0.07197631 -0.06865906 0.08710815 -0.08432615 -0.061680086 -0.101032495 -0.034965727
-0.02465827 -0.08403555 -0.092244886 -0.036559787 -0.09477169 -0.09998595 0.033236746 -0.058597337
0.00077261234 0.15624772 0.047443196 0.019571612 -0.1120145 -0.023420732 0.068154804 -0.12196385
-0.042830504 0.08047973 0.20212361 0.1331306 0.06407282 -0.0907672 -0.0015987318 0.07150026
0.12802806 0.07530276 0.116673306 0.06669946 0.040727604 0.13784122 0.032922253 0.0015675751
0.13194446 0.05512958 -0.086751744 0.21892507 0.04389905 0.08446378 0.032529797 -0.02147842
0.048835468 0.03842387 0.0068908627 -0.0876194 0.06449524 -0.001391319 -0.08675669 0.017100845
0.05127763 -0.25928938 -0.29338914 -0.16765338 0.035710093 -0.06742338 0.05406835 -0.012843021
0.03840834 -0.06633906 0.08819389 0.036851153 0.105717 -0.12358077 0.028075144 -0.050081003
-0.028496373 -0.058309514 0.066707134 0.02866961 -0.20272925 -0.19690157 -0.25271985 -0.15538445
-0.20302688 -0.3041742 -0.28593954 -0.31938845 -0.1578326 -0.059512828 -0.04657199 -0.060933895
-0.14505543 -0.09989848 -0.116735205 -0.11317136 -0.01838753 -0.023574937 -0.047460426 0.03231419
0.2138073 0.11185654 0.10055391 -0.017157804 0.015776316 -0.12070331 -0.0997359 -0.05122568
0.011049767 -0.28399175 -0.14248885 -0.27363887 -0.29927316 -0.25489625 -0.29487285 -0.17364974
-0.050494544 -0.037251163 0.052934222 -0.01652907 0.07496433 0.029711287 0.15044235 0.021274803
0.008349251 -0.07573201 -0.019420842 0.081512704 0.10332311 -0.025389614 0.028912578 -0.09013212
-0.03249608 0.08127226 -0.07582264 0.03274682 0.0072372626 0.005144681 -0.08345733 -0.16819213
-0.027560461 -0.029911762 -0.0018541581 0.08216534 0.19271678 0.15499958 0.15670194 0.24112438
0.31505537 0.3398014 0.16219012 0.24347691 0.26658535 0.08552363 0.1802007 0.13880362
0.14495979 -0.08303605 -0.26233366 -0.2225282 -0.0009935077 0.2619386 -0.089160465 -0.046302017

rnn.weight_hh_l0 f4 [100, 100]
00000000: 58e5 153e c3c5 a0bc fe6e 8cbd 697f ee3c
00000010: 4bca 163d 6e58 da3d a2db 1c3e 2c95 e73d
00000020: 5b82 603d 437b cdbd 655c 173e c49a 333d
00000030: 642c 8abd f585 ab3d 351c 9abc b362 93bc
00000040: 1f03 323e f258 2c3e 3bba 49be 1aa5 5d3e
00000050: 8839 023e 62c3 1cbd ea92 f03d f353 03bd
00000060: e185 a63d bf77 033e a7ad 043e c104 aabd
00000070: f9e5 323e 4769 07be ca16 c23d eeb0 b13c
00000080: 9546 51bd 2da3 adbc b7c6 4ebe 4f42 e53d
00000090: c587 63bd 1b65 093e 4622 413d 58b9 0cbe
000000a0: 0e9d 31bd 5f2a 11bc 8aaf ecbd 3382 8a3d
000000b0: 889d 403d 8c5c f1bc 0eb6 b63c 09d7 6e3c
000000c0: 0a27 f83c 8e30 a83d 3364 163d 31d1 c7bd
000000d0: b030 993d a3f1 07be 086c f8bd e057 7e3d
000000e0: 0014 45bd 3319 973e bf1d 0cbd a941 f2bd
000000f0: 9e9e 533d 78fa 9fbc 771e cfbd d939 e73c
00000100: 97d9 a33d 12a7 f93c c935 0f3e b573 04bd
00000110: 54fd c8bd f306 e03d e6a8 d6bb 3ec6 ad3d
00000120: 578b e53c 5972 79bd 2e54 d1bc 24b4 20be
00000130: 13ea 4c3c b610 c5bd ee2c 19be b7e4 613d
00000140: 6181 11be 0408 37bd aff3 f33d 6a8d f03d
00000150: a353 323d 8be9 093e 9002 87bd 3fbb c83d
00000160: 0bbb 2b3d 5f89 fbbd 216c 0cbd 057a 62bd
00000170: 73ac be3d 5a56 07bd 9553 ba3d 3352 c8bc
00000180: c1ad d83d 5573 8c3d 13ad 90bc a371 01bc
00000190: ca9a d4bc bc77 d0bc eba8 e03d 1f4d 81bd
000001a0: d459 0e3e 987f 0f3c 98df fc3b eb8c 4fbe
000001b0: 23df 5c3d 5dc3 8ebd befd 9abd 9d92 68bd
000001c0: 1e20 e73a cceb 27bd 31ef 093d 9c61 453e
000001d0: c6a3 89bd 379f 853d c39e 923d 6a75 50bd
000001e0: 6317 913b 3cb8 2d3e d425 36be 48a2 86bd
000001f0: 8bef e83d e731 43be c9b5 013a 59f8 593d
00000200: 6a1c f6bd 50ad 183e c8ba be3c 5ba4 d93c
00000210: e92a d63d 8679 08bd 379c 093e da41 babd
00000220: 7252 60bd 054f 33be af04 07be a3c6 f23d
00000230: d534 4cbd b4be 93bd 3376 353e cee3 9d3b
00000240: ccbc 843c 710e 2b3e 9531 4dbd 5654 153d
00000250: dfd0 02be 5d75 9a3d b476 bd3d 9bd7 f33c
00000260: 8919 473d f0a4 3dbd b126 26bd 3aa0 973d
00000270: d4d3 ed3d 71ce 69be 668c 643d 3b52 5a3d
00000280: 3a2a f3bd 9837 61bc b57b 783d 0f7a 3cbd
00000290: 842c 9c3d 5a02 19be a053 6fbd 75f1 26bc
000002a0: b8b1 883b 7590 143d 9c27 f7bd cf8d 83bb
000002b0: be5a a23b f2a2 4c3d 9bae 293d 9fc8 303d
000002c0: 13e4 34bc 5fd6 123d 1d91 2e3d b40a 94bd
000002d0: 91fa d33b fe0d e4bd 93db dc3d ef07 acbd
000002e0: af8d 163e 8b5a 0b3e a89b a23d 9e83 31bd
000002f0: 265d a73d 1404 32bd b8a3 603c bf79 53bd
00000300: 609c d13c 1727 07bd eaad 8fbd 8804 c6bd
00000310: b4aa f9bd f506 c9bc 3844 1dbe c03e d8bd
00000320: c5ab f0bb 97fe 81bd 6311 5c3d 0bf9 823b
00000330: a363 8c3d 4b6d 5c3d b889 d43d 80d5 1cbe
00000340: 2730 9a3b 253b b8bd e209 aa3d 5b4a db3d
00000350: a1ad ab3b 12ea acbd b666 04be 43eb 9bbc
00000360: eba8 2ebd 3fc0 2a3d 8c6b 433d 0fb2 0ebe
00000370: 802e 6c3d 6070 4e3d aed4 39bd 89c2 cf3c
00000380: bce3 ebbd bdc8 c1bd 7548 223d a921 263b
00000390: 57e7 873d eadf 12bc bc18 28bd 8588 0e3c
000003a0: efb2 b5bc c6f5 17bd 846b 35be 1da0 8b3d
000003b0: a36e 3bbd 08a2 f4bd ff47 043e 8ef7 60bb
000003c0: 6171 e5bd c3cb 153e b1d3 aabc c146 c33d
000003d0: 1d6f 88bc e679 b33d aff8 e9bc fd18 5e3d
000003e0: 8bf2 f43c d7de d2bc 87c8 cfbd 8c92 78bd
000003f0: 8dd4 54bd 364a cbbd 4965 22be 9d37 053d
0.14638269 -0.01962555 -0.068571076 0.029113488 0.036814015 0.10661398 0.15318158 0.11307749
0.054811817 -0.10033276 0.1478134 0.043848768 -0.06746748 0.0837516 -0.018812278 -0.0179914
0.17384003 0.16830805 -0.19699948 0.21645012 0.12717259 -0.03827227 0.11746772 -0.032062482
0.08131004 0.12838648 0.12956868 -0.08301688 0.1747054 -0.13223754 0.09477003 0.021690812
-0.051092703 -0.021195972 -0.20192991 0.11194288 -0.0555494 0.13417475 0.047151826 -0.13742578
-0.04336267 -0.0088602 -0.11556919 0.06763115 0.047025234 -0.029463075 0.022303607 0.014577636
0.030292053 0.08212386 0.03671665 -0.09756697 0.074799895 -0.13275771 -0.1212998 0.062095523
-0.048114777 0.29511413 -0.034208056 -0.1182893 0.05166494 -0.019528612 -0.101132326 0.028225826
0.08000486 0.030475173 0.13985361 -0.03233691 -0.098139435 0.109388255 -0.006550896 0.08485077
0.028020544 -0.060900066 -0.025552835 -0.15693718 0.0125069795 -0.09622328 -0.14958546 0.05514976
-0.1420951 -0.04468538 0.11911713 0.117457226 0.043536793 0.13467996 -0.06592286 0.09801339
0.041926425 -0.12282061 -0.034282807 -0.05529215 0.09310236 -0.033041336 0.09097973 -0.024453258
0.10580016 0.06857935 -0.017660653 -0.007900628 -0.025952715 -0.025447719 0.109697185 -0.06313538
0.13901454 0.008758448 0.007717084 -0.202686 0.053923737 -0.06970856 -0.07567929 -0.056780446
0.0017633473 -0.040996358 0.033675376 0.19275516 -0.067206904 0.065245084 0.07159188 -0.050893225
0.0044278367 0.16964811 -0.17787868 -0.065739214 0.11373814 -0.19062005 0.00049480476 0.05321536
-0.12017138 0.14909863 0.023282424 0.026567629 0.10457403 -0.03331902 0.13438497 -0.090945914
-0.054766126 -0.17510612 -0.1318538 0.11854293 -0.049855072 -0.07214108 0.1772087 0.004818416
0.016203307 0.16704728 -0.050096113 0.036457382 -0.1277499 0.075419165 0.092511564 0.029765895
0.048608337 -0.046299875 -0.040564243 0.07403608 0.11612669 -0.22832657 0.055797957 0.053301077
-0.118732885 -0.013746165 0.06066485 -0.04601484 0.07625678 -0.14942303 -0.05842936 -0.010189404
0.0041715764 0.036270577 -0.12068102 -0.0040147076 0.004954665 0.049960084 0.041426282 0.043160077
-0.011040705 0.03584897 0.04261886 -0.07228604 0.006469079 -0.11135481 0.10784068 -0.08399951
0.14702486 0.13608758 0.07939845 -0.04333841 0.081720635 -0.04346092 0.013710909 -0.051629778
0.02558726 -0.032996263 -0.07015593 -0.09668833 -0.12190762 -0.02453945 -0.15358055 -0.105588436
-0.0073446953 -0.06347387 0.05372752 0.0039969734 0.06854942 0.053815167 0.1037783 -0.15315819
0.0047054472 -0.08995656 0.08302666 0.107075416 0.005239204 -0.08443083 -0.12929806 -0.01903308
-0.04264156 0.041687246 0.047709987 -0.13935111 0.057661533 0.050400138 -0.045368843 0.025361316
-0.11518046 -0.09462116 0.03961988 0.0025349653 0.066359214 -0.008964518 -0.041039214 0.008699541
-0.022180049 -0.037099622 -0.17716795 0.068176486 -0.04575981 -0.119449675 0.1291809 -0.0034327242
-0.11203266 0.1462851 -0.020852895 0.095349796 -0.016654545 0.08763485 -0.028560964 0.05422305
0.02990081 -0.025741024 -0.101456694 -0.060686633 -0.051960517 -0.09926264 -0.1585895 0.03252374

rnn.bias_ih_l0 f4 [100]
00000000: f8b1 04bc 5d29 70bd b1cc df3d fd9e 063e
00000010: 4913 9cbd a11e ab3d 1705 24bd ff12 c43c
00000020: e7a2 8b3d ca0b 3b3d 90f7 e93d f550 cebc
00000030: 85d8 8abd 18d3 44bb 3031 abbc 9bc5 f13d
00000040: b8da c33c 6c42 8fbd f0b3 343d 9d69 2d3c
00000050: a8c9 e93d 9491 de3c c39d f03c 9bd4 863d
00000060: dba5 c73d 0243 d0bb fcc1 103e be56 15bd
00000070: 18e6 b13d 4779 b2bd 473c 31bc c69d f7bc
00000080: 3c3f b9bc 43d2 cd3d 80da 263d f282 a33d
00000090: 2cd6 c0bd afaa 5fbe a7ac 443e fb0c 973d
000000a0: a893 923c 1c4c 523d d8f8 37bd f466 62bc
000000b0: 92e2 923c 76fe d6bc 0a5c ccbd cbc4 a2bc
000000c0: 5f48 153e eea6 11bd f1f4 86ba 44ef 7e3c
000000d0: 56da a53d cc04 b4bd 3445 d63d d010 983d
000000e0: d6d4 35be 4d99 253d 8caf f03d 943a 5f3d
000000f0: 3a1e f2bd 0d52 083b ccfc 9a3d b78a 2ebe
00000100: 0ee8 2ebe 2b2c 053c 4126 833c 62b2 f2bd
00000110: 34bf d6bc a39c 2ebe 3a55 363d eb78 6cbd
00000120: 524c 02be 9da6 8abc 5056 a4bd 5f24 c23c
00000130: 73e8 adb9 71f3 053e d1ef 16be f123 41be
00000140: 5821 b83d fdbc 7a3c ca6c 283e fadb 60bd
00000150: 157d 553d d704 a1ba e51b e4bd 71c4 003d
00000160: 9f39 4c3e 8234 a43c 5491 a4bc a590 dcbd
00000170: ad6a 9fbd dd0a 023e fc35 803d 82c1 70bd
00000180: 2174 0e3c c9c4 7c3d 44a0 f03d 6603 613c
-0.008099072 -0.058633197 0.10927714 0.13146587 -0.07620866 0.083554514 -0.040043917 0.02393484
0.068181805 0.04566554 0.11424172 -0.025185088 -0.06779579 -0.0030033048 -0.020897478 0.118052684
0.023908004 -0.06995091 0.044116914 0.010584262 0.11415416 0.027169026 0.029372102 0.0658352
0.09748431 -0.006355644 0.14136499 -0.036459677 0.08686465 -0.08714538 -0.010817594 -0.0302266
-0.02261316 0.1004987 0.04073572 0.0798396 -0.0941585 -0.21842454 0.19206487 0.07375523
0.017892674 0.051342115 -0.04491505 -0.013818491 0.017930303 -0.026244383 -0.099784926 -0.019869229
0.14578389 -0.035559587 -0.0010296387 0.015559975 0.08098285 -0.087899774 0.10462418 0.07425082
-0.17756972 0.040429402 0.11752233 0.054499224 -0.118221715 0.002080086 0.075677484 -0.17045103
-0.1708071 0.008128206 0.016009452 -0.1185043 -0.02621422 -0.1705194 0.044514872 -0.057732504
-0.12724426 -0.01692515 -0.08024275 0.023698984 -0.0003317032 0.13081147 -0.1473992 -0.18861367
0.08990735 0.015303847 0.1644775 -0.054897286 0.05212124 -0.0012284768 -0.11138133 0.03143734
0.19943856 0.020044569 -0.02008883 -0.10769776 -0.07784019 0.12699457 0.06260297 -0.058778293
0.0086946795 0.061711106 0.11749318 0.01373372

rnn.bias_hh_l0 f4 [100]
00000000: 9e4a 203c f38b 83bc 8b98 093e 0cc5 b8ba
00000010: 9404 bdbc 8ffd a4bd 226b 9d3d c9b6 74bb
00000020: 2daa 52bd 42fd a13d c64f 5cbd fa52 b93d
00000030: 1076 fabd 5f80 dbbd f5ab 61bd 2ba5 f13d
00000040: 1074 c03d 6e15 863d 1368 333e ad25 95bd
00000050: ee68 b63b 5dcc f1bc 74fa 7cbd 42e7 2abd
00000060: 52dc b1bd 8458 6b3d 6d53 fdbc e167 ea3c
00000070: 2896 8fbb da7c 0a3d de4f 9ebd 47fc 3ebd
00000080: 2d14 2cbd 51ec 8e3d a4c9 9a3c 52ae 483c
00000090: 2f29 57bc 8825 4ebd 495e 393e 93cd b0bd
000000a0: 30bd 14be 58b0 103e 773c cebd 9990 9abd
000000b0: febc e9ba 790c 803d 802b 0ebe 3383 07be
000000c0: d740 2b3e 7e0e 0cbd d46f 083d 754e 123d
000000d0: f32c b1bd 56c8 ee3c ceec 08bc 447e 293e
000000e0: fbed 1fbe e0e0 36bd df59 993c 5769 853c
000000f0: 41e8 2fbd 55f6 fcbc ac16 d63d 0ead 19bd
00000100: d95b febd 0554 32bd 45b6 643d e401 2cbd
00000110: 8b0f aabd 7f6e af3b 5421 243d eb87 61bc
00000120: 1c08 ccbd 4010 173e accd 893d 1818 733d
00000130: 15f7 b9bd 88e9 0d3e 80a2 92bd b8f6 b8bd
00000140: 7955 d8bc f2d9 0b3c 6e47 b43d e864 fe3c
00000150: dcce 5abd a8d8 60bc 6e3d b3bd bafd 683d
00000160: 827a 3d3d 2502 febc 501c ffbd acaa 1ebe
00000170: 043f e4bd 147d f73d e84d 4ebd a969 a3bd
00000180: 92fa f0bc c775 b8bd 666b cfbb f332 ab3d
0.009783415 -0.016057944 0.13437097 -0.001409681 -0.023073472 -0.08056175 0.076864496 -0.0037340394
-0.051431824 0.07909633 -0.053787015 0.0904903 -0.1222955 -0.10717844 -0.05509563 0.117990814
0.09397137 0.06547056 0.1752017 -0.07282577 0.005566708 -0.029516393 -0.06176229 -0.04172445
-0.08684601 0.057457462 -0.03092357 0.028613986 -0.0043819137 0.033810474 -0.07730077 -0.04662731
-0.04201143 0.069786675 0.018894978 0.012248592 -0.0131323775 -0.05032876 0.18102373 -0.0863296
-0.14525294 0.1412977 -0.100701265 -0.07547111 -0.0017832813 0.06252379 -0.13883781 -0.13233642
0.16723953 -0.03419351 0.033309773 0.035719354 -0.086511515 0.029148262 -0.00835724 0.16552073
-0.15618126 -0.04464805 0.018719612 0.016285582 -0.042946104 -0.030879179 0.10453543 -0.037518553
-0.12419862 -0.04353716 0.05583789 -0.04199399 -0.08303746 0.0053537483 0.040070847 -0.0137653155
-0.09962484 0.14752293 0.06728682 0.05934915 -0.0908033 0.13858616 -0.07159901 -0.09031433
-0.026407944 0.008535849 0.08802687 0.031053975 -0.053419933 -0.01372353 -0.08751951 0.056882598
0.04625941 -0.031006882 -0.12456572 -0.15494794 -0.11144832 0.12084404 -0.050367266 -0.079791375
-0.029416356 -0.09006839 -0.0063299416 0.08359327

rnn.weight_ih_l1 f4 [100, 100]
00000000: 57ee 003b 8620 24be 4d03 21bd 629b 673d
00000010: 18f2 ad3c 0a7c 943c a7b3 e0bd 5a8c 1e3d
00000020: 5476 b33c a845 033e 12de c6bd 0d45 14bd
00000030: f5ec 823d fadc 153a 8af8 913c 038d 3cbd
00000040: f9c9 3abd c315 333d abc5 873d f38b dd3d
00000050: bb12 04be 4704 f2bd 45e6 953d 329b b13d
00000060: 8654 f9bd 59ff 953c 939c 8abd 85d7 b3bd
00000070: da33 8fbd 69b9 60bd a555 bb3d a305 303c
00000080: b12e 973c 0b93 cbbd 7ac7 813b 1670 5c3d
00000090: 1b2c 8cbd 68d0 47bd 3330 c9bc af95 ac3d
000000a0: be09 183c ed5d e7bc 7599 3a3d 2c38 32bc
000000b0: cb75 e9bd 5151 89bc 2ae0 be3d 5d2e a83d
000000c0: 780f 0fbd 6904 703d 1ab0 94bd 1eca 333e
000000d0: d8d0 963d 4148 a0bd 3240 3c3e c758 6d3d
000000e0: 993b 04be 4f80 aabc c23e 11bd c767 9c3d
000000f0: 012c 943c bb76 79bc 5093 003e eb00 07be
00000100: 1e9d 963d 5d8d f63d 8f93 33bd f389 f93b
00000110: 1ec0 7ebd 8010 1ebc 642e 923d dff5 203e
00000120: 6329 9e3c 7e66 f93c 00b2 543d 24bf 2c3d
00000130: 3987 14be 0302 533d 432a bbbd b57f 263d
00000140: 6424 853d 9aeb 003e 5b41 0a3d ef71 45bd
00000150: d161 d73d 4d0c 163d f476 0c3c 58a1 333c
00000160: 1b8c 86bd e105 873d fbbe 04bd e220 ddbd
00000170: 64c9 30bc d7be f83d 7553 96bc 3c2e 313d
00000180: cc05 1bbd 3306 f1bd 75bc 443d b2d5 903c
00000190: 58d1 41bc 1f4d 31be 07be 1a3d dac5 983d
000001a0: fd17 a8bc b8f6 093e a12f 2e3d 9276 2a3d
000001b0: 4267 86bd 7d2f 1cbd fc67 6b3c 792b e9bc
000001c0: ced2 40be 1bd0 96bd 401e b2bd 27e5 6d3c
000001d0: e8ba 113d 6fbc a73d 41be 3abc 21e6 283d
000001e0: f23f 52bd ce99 e23d bb8c 0bbc 4f6b 96bd
000001f0: 6a90 83bd 2dad 40bd 2fb1 263c 12d1 d8bc
00000200: 9ebf 90bd f542 ed3d c50a 23be 8056 dcbd
00000210: 50c8 46be 4941 53be d541 b0bd b137 fd3c
00000220: bc9e b6bc abd4 44be fb0a e93d fe8a ffbc
00000230: 0183 d1bd e1ed 8c3d e4b3 ecbd bc37 c33d
00000240: a5e3 723c d812 083d 1eee b9bd 109d 6c3d
00000250: 208f 653d 7d2e 9b3c 99bb 9abd 7d7c 2d3d
00000260: f989 003e 8f1e 51bd 54f2 b13d c210 a63d
00000270: b24c b4bc dba8 abbc 65a2 c5bc 92f9 52bd
00000280: 76c0 10bd 13f4 713d 82cb 40bd 1080 f63c
00000290: 098d 6bbb f747 973c 5ee9 b0bb 1bfc 45bd
000002a0: f360 cfbd bd12 d23c f481 4b3e 833c a53d
000002b0: 7918 b4ba 1225 38bd 525f 9bbc 8c05 56bc
000002c0: a4b7 85bd b090 443e 163f d9bc d260 823c
000002d0: 1656 fb3d 6ebe 8a3d 0d96 be3a eae9 bbbd
000002e0: 856b 39be 6458 2dbe 426c 1dbd 38c0 debd
000002f0: 85cf d13d fa1e b83c 6d37 423c 3376 593d
00000300: df00 9dbd cbed 053e 8c23 753d d46d 87bd
00000310: 8216 59bd 60b9 923b 6770 813d 18cf 863d
00000320: c342 403d 3e5e 633d 11a8 8dbb 9b72 133c
00000330: 6689 263c 0003 073d 7c7e 523d 23a3 dfbd
00000340: 30ed eebd 2884 aebd 6dc0 073c bffe 523d
00000350: ae82 7c3d 1b4b 483d b860 87bd 0309 06be
00000360: ba01 83bd e992 e1bc 59e9 bd3d 098f 433b
00000370: a893 47be 5076 18bc a98d 07bd af35 babd
00000380: 808d 093c 354b e0bd 4148 29bd 1bc3 e0bd
00000390: fe2d 143e 8316 b0bc 6879 923d 8a51 35bd
000003a0: 4717 6abd b251 913c 84d1 523d af45 18bd
000003b0: 273d f53d 6f6a d23c 774a 9fbd 6793 79be
000003c0: be2f 6a3e 2b2b 19be 6dfb 83bd 251e e53d
000003d0: e77d ebbd dfc6 623d 29c8 1abd ab01 d0bd
000003e0: d35e b539 7606 babd 25a5 133c 121c fcbc
000003f0: 854d 2bbd e3b2 523d f8dc 0abe e7de e5bc
0.0019673312 -0.16028032 -0.03930979 0.05654467 0.021233603 0.018125553 -0.10971766 0.03870807
0.02190701 0.1281954 -0.09710325 -0.036198664 0.06392852 0.0005716827 0.017818708 -0.046032917
-0.045602772 0.043721925 0.06629499 0.10817709 -0.1289777 -0.11817222 0.07319311 0.08672179
-0.12174325 0.018310236 -0.067681454 -0.087813415 -0.06992312 -0.05486432 0.09147195 0.010743531
0.018454881 -0.099401556 0.003960547 0.05381783 -0.0684435 -0.048782736 -0.024559116 0.084269874
0.0092796665 -0.02824303 0.045556504 -0.01087765 -0.1139942 -0.016762407 0.093201 0.08211968
-0.03492686 0.058597956 -0.07260151 0.1755757 0.073640525 -0.07826281 0.18383864 0.057945993
-0.1291336 -0.020813135 -0.03546024 0.076369815 0.018087389 -0.015226061 0.12556195 -0.13183944
0.073541865 0.12038682 -0.043841895 0.007615322 -0.062194936 -0.009647489 0.071377546 0.15718792
0.019306844 0.03044438 0.051927567 0.042174473 -0.14504708 0.05151559 -0.0913892 0.040649135
0.065010816 0.12589875 0.033753734 -0.04820436 0.10516704 0.036632825 0.0085732825 0.01096376
-0.06569692 0.06592918 -0.032408696 -0.107972875 -0.010790203 0.12145775 -0.018350342 0.043256983
-0.037847325 -0.117687605 0.04803129 0.017680023 -0.011829697 -0.17314576 0.03777888 0.07459612
-0.020519251 0.13473022 0.04252589 0.041616984 -0.065626636 -0.038131226 0.0143680535 -0.028463112
-0.18830416 -0.07363912 -0.08697176 0.014519966 0.03557864 0.08190238 -0.011397899 0.041235093
-0.051330514 0.11064492 -0.0085174395 -0.07344686 -0.06424029 -0.047040153 0.01017408 -0.02646688
-0.07067798 0.11585037 -0.15922077 -0.10758686 -0.1941235 -0.20630373 -0.086063065 0.030910345
-0.022292487 -0.19221751 0.113790475 -0.031194206 -0.10230065 0.06881309 -0.11557749 0.09532115
0.0148247825 0.033221096 -0.090786204 0.057766974 0.056044698 0.018943066 -0.07555313 0.04235505
0.12552632 -0.051054534 0.086887985 0.08108665 -0.022009227 -0.02095454 -0.024125287 -0.05150754
-0.035339795 0.059070658 -0.04706908 0.030090362 -0.0035942218 0.018466933 -0.0053989133 -0.04833613
-0.101259135 0.0256437 0.19873792 0.08068182 -0.0013740204 -0.044957228 -0.01896635 -0.013062846
-0.06529167 0.19195819 -0.02651934 0.015915308 0.12272279 0.06774603 0.0014540568 -0.09175475
-0.18107422 -0.1692825 -0.03843332 -0.108765066 0.10244659 0.022475708 0.011854035 0.05309124
-0.07666182 0.13078992 0.059848353 -0.06612745 -0.05299998 0.004477665 0.06320267 0.06582469
0.04693867 0.0555098 -0.0043230136 0.008999492 0.010164594 0.032961845 0.051390156 -0.10919788
-0.11666334 -0.085213006 0.008285624 0.051512476 0.061648063 0.04889975 -0.066102445 -0.13089375
-0.06396814 -0.027535873 0.09273023 0.0029839894 -0.1948992 -0.009305552 -0.033094082 -0.090922706
0.008395553 -0.109518446 -0.041328672 -0.109747134 0.1447067 -0.02149511 0.07152063 -0.044267215
-0.057151105 0.01773915 0.05146934 -0.03717583 0.119745545 0.025685517 -0.07777875 -0.24372636
0.22869775 -0.14957874 -0.0644444 0.1118739 -0.11498623 0.05536544 -0.037788544 -0.10156568
0.0003459366 -0.090832636 0.0090115415 -0.030775104 -0.041821975 0.05144013 -0.13560855 -0.02806039

rnn.weight_hh_l1 f4 [100, 100]
00000000: b979 d23e 230c fb3c 663c 22bd 0b89 bfbd
00000010: 7b97 e7bc 2784 b23d b394 1fbe 3dec 5f3b
00000020: f389 473d 2d49 3dbe b44d abbd 5cf7 623d
00000030: 0898 a6bc 703a 053d 118f 7fbd d91b b83d
00000040: f407 65bd d6fc dcbd 37fc 9c3d 89e3 98bd
00000050: bde1 1cbe 77ea 7bbd 0825 553d dd64 c33c
00000060: e201 debb e2a7 b63d d2d6 9a3e 7f84 dc3c
00000070: 440c a73d 5ca7 4a3e f9f1 4d3d 3379 253d
00000080: 9d2a 55bd 72b8 683d ce76 0e3d 0111 16bc
00000090: 3a2a 1d3d 1788 283c d691 eb3d 2b8a 003d
000000a0: b99e 173e 610e 0cbe f904 52bd 3e04 7b3d
000000b0: 16e4 d9bc 2f86 33bc 38ca 573e 1204 8ebd
000000c0: 2bca 233e 535e 0dbe 4775 ecbd 2280 243e
000000d0: a40a 22be eafa 033d e56d b53d 9db0 44bd
000000e0: 97b6 693d 69f4 2a3e 91f7 d23d 52eb d03d
000000f0: ffd1 cc3d c785 ca3d 02e3 03bd 38ff 213e
00000100: a8d1 043e 197f b53d f797 7e3d afe8 4e3e
00000110: a770 483d 66f1 bdbd af6c c7bb 04a4 6abd
00000120: 1517 8a3d 603a 833c 8ecc 29bb 1212 843d
00000130: 4d49 4dbe b585 823e 041b bdbd 4dd2 13be
00000140: edd8 f8bd 210d d9bd c0ec 943e 0243 2cbe
00000150: 1c2a 923d 9d8e c1bd a41f 86be 792c 08bd
00000160: 8b67 c23d bc94 b53c 5cfb 12be c6d8 41be
00000170: 27bb bfbb ddc9 493e f691 02be cbd4 14bc
00000180: a338 ac3d f12e 853c 3abc 87bd db18 4ebd
00000190: 381b 1e3e 3b7f fb3d 0375 003c 7e25 893d
000001a0: 91bf 883d 8187 30bd 9f3b 1c3e 522d a03c
000001b0: b3d4 20bd 5b09 153e e11f 523d e918 b23d
000001c0: bc6b 893c 67f8 603d 4304 adbc 6ab4 4f3d
000001d0: b229 99bc c423 8ebc a5f1 f83c 2598 9abb
000001e0: 8291 23bd 4db3 38be 79d0 a5bd e363 4f3c
000001f0: af93 6b3d c94b 0d3e 9c69 913d d0db 97bd
00000200: c0de f13d a45d 2abe af56 a13d 2d0e 82bd
00000210: 29da 32be a717 c13d e63d 07bd 3ebb cebc
00000220: 2575 1ebd 4e9b 683b ef75 cfbd 0005 0fbe
00000230: bfd8 3e3e 6b61 69bc 7c10 303c f97b e0bd
00000240: 9912 4a3d 2ed6 31bd 145a 1b3e 58c6 e23c
00000250: 3fe6 2a3e e394 38be 0db2 cebb 7258 a93c
00000260: 7bf4 69be 5e19 903d 6d61 9c3d e053 4fbe
00000270: 4c14 a83c 0a46 b73d f052 6cbb af6f 17be
00000280: eb7f c4bc 58df 9c3d 2a6b a8bd 7679 10bd
00000290: 81ad f73d 1f78 d93c 4ad8 e73d 1ce3 babd
000002a0: c045 c7bc 825f 4cbd fa50 ee3d cd7f 373e
000002b0: 9238 53be 84c0 4fbd c2e2 17bc e7cf 5e3d
000002c0: 064a 7fbd ad06 babc 2a57 34bc 37ee d93d
000002d0: bf49 8fbd 9aba 8a3d dec9 8dbd 1a8d cfbd
000002e0: f0f2 6c3d 610b 413e 5259 853d e78d c73c
000002f0: 7906 883b 52db c43c 812e 23be 54d4 cc3d
00000300: f3df 6ebd 32a9 013e f500 bebd a2f5 043d
00000310: 02eb e5bd e77b eabd 6fb9 93bc 6656 033e
00000320: caf3 9cbd f749 943d be7a 4d3e a6d9 aa3c
00000330: 911f c1bd 3295 11be 1db5 8c3e ee85 6b3d
00000340: e526 09bd 8dcc 7fba 397b 163c ca07 763d
00000350: 540f c6bc 97a4 f4bd f090 89bd 0ec4 55bd
00000360: b7fc 87bb fdcf 663e c320 a73d a18d e3bd
00000370: 1d9e ef3c d674 1ebe ba27 333e 944d 29bc
00000380: 01d6 1bbe d111 25be 6a64 b03d 125f 9cbd
00000390: d3ae a5bd 8109 933d fde0 08bd 9527 b73c
000003a0: b171 69bc 54bb c93d 16d8 4abe 802d 783c
000003b0: c21c c4bd f61d 803e cb03 38be 85fe 273e
000003c0: f7b9 273e 36be 803d 00c3 e93d 5325 983e
000003d0: 242f 023e 61c8 8fbd 5466 04bd 1cce 9a3d
000003e0: 9855 59bd 5365 0abe f509 a0bd 7fc5 863a
000003f0: b57d e33d 372c 5dbd 96ba 9b3d be4b 8dbe
0.41108492 0.030645436 -0.03960838 -0.09352311 -0.028270474 0.08716612 -0.15584068 0.0034167909
0.048715543 -0.18484946 -0.0836443 0.05541168 -0.020336166 0.032526433 -0.062392298 0.089896865
-0.055915788 -0.10790412 0.07665294 -0.07465274 -0.15320487 -0.0615029 0.05203727 0.023851806
-0.006775127 0.0891874 0.3024202 0.026918648 0.08156636 0.19790405 0.05027959 0.040398788
-0.052042592 0.056816526 0.03478127 -0.0091593275 0.03837035 0.010286353 0.115024254 0.031381767
0.14806642 -0.1367736 -0.051274274 0.061283343 -0.026598018 -0.010957285 0.21073234 -0.0693437
0.1599509 -0.13805513 -0.115458064 0.16064504 -0.15824372 0.032221712 0.08858851 -0.048019994
0.057058897 0.16694798 0.10301126 0.10201134 0.10000991 0.09888797 -0.032198913 0.15820014
0.12970603 0.088621326 0.062156644 0.20205949 0.04893556 -0.09274559 -0.006085954 -0.057285324
0.06742684 0.016019046 -0.0025909278 0.06448759 -0.20047493 0.25492635 -0.092336684 -0.14435692
-0.1215075 -0.10598207 0.29086876 -0.16822436 0.07136938 -0.094510294 -0.26196015 -0.033245537
0.094924055 0.022165649 -0.14353698 -0.18930349 -0.0058511677 0.19705911 -0.12750992 -0.009083937
0.0840924 0.016257735 -0.06627698 -0.050316673 0.1544007 0.12280127 0.007840398 0.06696604
0.066771634 -0.043097977 0.15257119 0.01955286 -0.039265346 0.1455435 0.051299933 0.086961575
0.016775005 0.054924395 -0.021120196 0.050709166 -0.01869664 -0.017351039 0.030388663 -0.004717844
-0.03993369 -0.18037148 -0.08096404 0.012658092 0.05751389 0.13798441 0.071002215 -0.07414973
0.11810064 -0.16637284 0.07877862 -0.0635036 -0.17466034 0.094283395 -0.033018015 -0.025235768
-0.038685936 0.003549296 -0.10129916 -0.13966751 0.1863737 -0.014244418 0.010746118 -0.10961146
0.049334142 -0.04341715 0.15171081 0.027682468 0.16689394 -0.18025546 -0.0063078464 0.020672057
-0.22847168 0.070360884 0.0763577 -0.2024684 0.02051749 0.08948906 -0.0036060177 -0.14788698
-0.023986777 0.07659787 -0.08223565 -0.035272084 0.1209364 0.026546536 0.11320551 -0.09125349
-0.024325252 -0.04989577 0.11636539 0.17919846 -0.20627049 -0.050720707 -0.009270372 0.05439749
-0.062326454 -0.022708261 -0.01100711 0.10641139 -0.06996488 0.06773873 -0.06923269 -0.10134335
0.05784887 0.18851997 0.06511177 0.024359656 0.004151162 0.024030361 -0.15935709 0.10001436
-0.058319043 0.12662199 -0.09277526 0.032460816 -0.11226465 -0.11449414 -0.018032758 0.12825927
-0.076636866 0.0724067 0.20066354 0.020855736 -0.09429849 -0.1421707 0.27481928 0.057500772
-0.03348436 -0.00097579585 0.009184652 0.060066022 -0.02417723 -0.119454555 -0.06717098 -0.052188925
-0.004149999 0.22540279 0.08160546 -0.11110998 0.029250199 -0.15474257 0.17495623 -0.0103334375
-0.15218355 -0.16120078 0.086129025 -0.07635321 -0.08089986 0.07179547 -0.03341769 0.022357741
-0.014248298 0.09850183 -0.19808993 0.015147567 -0.095757976 0.25022858 -0.17970197 0.16405685
0.16379534 0.0628628 0.114141464 0.29715976 0.12713295 -0.07020641 -0.03232415 0.075588435
-0.053060144 -0.13515215 -0.07814399 0.0010282247 0.11107961 -0.053997245 0.07603948 -0.2759685

rnn.bias_ih_l1 f4 [100]
00000000: 55a1 8ebd ea30 cb3d 8bb3 d5bb 6092 1c3c
00000010: 92a7 b6bd e7e9 2f3e 8313 54bb 6193 45bd
00000020: ec50 16be bfed a0bd f431 833d 4a3c 06be
00000030: 9a7e 613d 4077 9ebd 68cf 2c3c d2bb 483d
00000040: 5365 5cbc 1572 3bbe 2574 b93c e2c7 623d
00000050: 8c44 e13d 7b4f bb38 ab83 1bbe 6ef3 7b3d
00000060: c432 b1bc 9bd3 8e3d ad86 203e ace2 9b3c
00000070: 3bfd e8bd 9bbb 0ebe 44dd 66bd b172 68bd
00000080: 2367 5b3d b9b7 113d 9f8c 363d fe3b 6a3c
00000090: d51a cfbd e3da 26bd 9621 823c e8e8 bf3d
000000a0: 3b85 08bd 50d2 76bc d112 d7bd 1cfd abbd
000000b0: 1ad9 b33d d38b 7f3c f874 0fbd 75b6 cfbd
000000c0: 3ce1 bb3d bf11 3c3d 1436 1b3e a523 913d
000000d0: 85ab d9bd 126b 65bd a628 17bd ffd3 afbd
000000e0: a82b 993d 1e45 343e 85d7 3c3d 12c4 a1bd
000000f0: 64ca 9b3d 4748 74bd 194d 4a3d ef76 003e
00000100: ce94 ad3d fbef d3ba f82e 28bd 17af 143d
00000110: 07d4 e7bd a01c aeba 5304 f63c 7e0f d33c
00000120: 41b5 d53c 1970 4cbd ed45 103e 7ee5 b9bb
00000130: 1a4d 96bd 987e d93d 0323 1abd aaf7 23bd
00000140: f60d 13be e0f7 9abd 8bfd ecbd 582d 833d
00000150: f1cf 813e 18ef 2dbc e132 89bd 490b 1bbd
00000160: 2b65 143e 7e5b a83d 5b6b 29bd fa2d aa3d
00000170: faba 23bd 81d8 7cbd 5897 baba 3a3b ddbc
00000180: 803e 0bbe 8746 b33d 8171 5b3d 4206 ab3d
-0.069643654 0.09921439 -0.0065216473 0.009556383 -0.0891868 0.1717907 -0.0032360263 -0.048236255
-0.14679307 -0.078578465 0.06406012 -0.13108936 0.055052377 -0.07737589 0.010547496 0.049007244
-0.013451892 -0.18305238 0.02263839 0.055366404 0.109994024 8.931659e-05 -0.15186946 0.06151145
-0.021630652 0.06973954 0.15676375 0.019028984 -0.11376425 -0.13938753 -0.05636336 -0.056750003
0.053565156 0.035575602 0.0445677 0.01429653 -0.1011254 -0.04073609 0.015885156 0.09370595
-0.033330183 -0.015064791 -0.10501636 -0.08397886 0.08781643 0.015597302 -0.03502366 -0.10142223
0.091738194 0.04591536 0.15157348 0.07086877 -0.10628418 -0.056010313 -0.036904 -0.08585357
0.0747903 0.17604491 0.046103973 -0.078987256 0.07606962 -0.05963924 0.049389932 0.1254537
0.08475648 -0.0016169542 -0.041060418 0.03629979 -0.11319738 -0.0013283677 0.030031359 0.025764223
0.026087405 -0.049911592 0.14089175 -0.0056731096 -0.07338925 0.10619849 -0.037631046 -0.040031113
-0.14360794 -0.0756681 -0.11571797 0.06405133 0.2535396 -0.010616086 -0.066991575 -0.03785256
0.14491718 0.08220576 -0.041362148 0.083095506 -0.039973237 -0.06172991 -0.0014235778 -0.02700578
-0.1359806 0.087536864 0.053575043 0.08350803

rnn.bias_hh_l1 f4 [100]
00000000: 73bf 2e3d fa3d 9e3d c272 40be 3f56 9d3d
00000010: b28c 54bd d56b db3d 712b d0bd 3d69 fbbb
00000020: da99 0abe 70e8 3eb8 c196 a0bc dcf5 dabd
00000030: fdad 8e3d c02c 023c 9656 3fbd 5b53 5dbc
00000040: 2ed5 8fbc 9dcb a4bc 42ea 0fbd 2127 3bbc
00000050: 27f0 db3d b1d4 f6bd 1e21 20be 6a5e 7fbb
00000060: e426 87bc ded4 383d 27fb ab3d af27 da3b
00000070: 7a06 c1bc 73b8 6cbb 2833 943c 5c7f 85bd
00000080: 48b0 4d3d 907e 9b3c 3f79 633d 0efb a83c
00000090: 2b0a 1bbe 9487 aebd e99f 97bc 0413 963d
000000a0: 16a0 89bd 6abb cc3d 0b43 1cbe 96dd 4fbe
000000b0: 7ada c23d 12db d6bd 5762 b3bd de1e 3c3d
000000c0: 2d78 063e cd91 613d ae81 0b3e c2fe 773d
000000d0: d355 763c a958 d9bd 375e 08be 2f3b e6bc
000000e0: d847 bf3d 66c8 9b3c f3c7 ec3d aa9c 0f3d
000000f0: 74d2 44bd 14d7 43be 68eb 35bd 2415 1e3d
00000100: c4d7 b93b 461e 7fba 976c 9e3d 4b97 b53c
00000110: 8fb2 b2bd 5855 09bd 8251 80bd 19d6 ab3c
00000120: e9f9 f9bd 6356 23be 3617 87bc 7778 a5bc
00000130: c1ef 0abd a727 773d b385 cebd dd1e 31bb
00000140: d8bf d1bd c5d8 0dbd 2cd1 2f3d 5a36 8f3b
00000150: 8959 fb3d cfbc 043d e4e1 d7bc cfc2 bfbd
00000160: b6a5 c83d 085f 1e3e a83d 42bd 520f e0bc
00000170: 735e 993b 2827 0d3b 8978 a03c 7ab3 1a3d
00000180: 64da 193d 9d4d 643a d52c b2bc ac6a 1d3d
0.04266305 0.07726665 -0.18793777 0.07682466 -0.05189199 0.10713927 -0.10164536 -0.0076724575
-0.13535252 -4.5516004e-05 -0.019603135 -0.10691425 0.069667794 0.00794524 -0.046713434 -0.013508643
-0.017557707 -0.020116622 -0.035135515 -0.011422903 0.10739165 -0.120522864 -0.15637633 -0.0038966187
-0.016498037 0.04512488 0.08397513 0.0066575627 -0.023562659 -0.0036120682 0.0180908 -0.065184325
0.050216943 0.018981248 0.05553555 0.020627525 -0.15140598 -0.08521953 -0.018508868 0.07327846
-0.06719987 0.09996684 -0.1525995 -0.20299372 0.09514327 -0.10491003 -0.08758991 0.045927875
0.13131781 0.055070687 0.13623688 0.06054569 0.0150351105 -0.10612614 -0.1331719 -0.028104393
0.09339875 0.019016456 0.11561575 0.035061516 -0.048052266 -0.19125015 -0.044413954 0.03859438
0.005671473 -0.0009731989 0.077355556 0.022166869 -0.087254636 -0.033528656 -0.062655464 0.020976113
-0.1220587 -0.15950923 -0.01649056 -0.020199044 -0.033920053 0.06034055 -0.10084095 -0.0027026453
-0.102416694 -0.034630556 0.04292409 0.004370493 0.12272937 0.032406624 -0.02635283 -0.09363329
0.09797232 0.15465939 -0.04742208 -0.027351055 0.0046804487 0.0021538232 0.019588726 0.03776882
0.03756179 0.0008709075 -0.021749893 0.03843181

fc.weight f4 [10, 100]
00000000: ddaa 0b3e 0e87 ebbb 05c3 2fbe 5f51 cb3c
00000010: bf8b 5b3e 2c1c 123e d295 7e3e 00ee 1abe
00000020: b4f1 a8bb 66ee 773e 0fdd 583e 546a 833e
00000030: fcb6 e33c 3324 0a3e 2c74 5d3e 240f 18be
00000040: 886a c8be 0531 153e 1673 ddbc 3460 babd
00000050: 0df5 6dbe 7d9c 5ebe 4122 b9bd 590d 3b3e
00000060: 828d 903e 173c acbc d02d cebb 1140 e03d
00000070: 3d90 393e e262 7e3d c7aa 26be c279 153c
00000080: bf56 eabd 587b c8bd c218 2d3d 6618 77be
00000090: 70be be3a 2d19 433c 153c 04bd b9ca 4fbe
000000a0: 2775 943b b8d5 37be 2410 a83d 042b b73b
000000b0: 9c93 6cbd e092 d53d dd42 993d b591 4a3e
000000c0: 1068 e0bc e992 c7bb 5de4 04bd 8c5f 503e
000000d0: ab25 6abe 52c8 ca3e 4a05 9b3e 389c 0bbe
000000e0: f69f a7be 3a43 473e cda2 b73d 4104 913d
000000f0: c006 773d 2369 9a3e 60da 83be 0eca ac3e
00000100: 94b4 ff3c 53c1 363c 0248 9abd f406 383e
00000110: 0974 183b ad17 14be 203c 993d 3582 9c3d
00000120: 777d c9bd ac6a 72bd 4ff1 33be c917 aa3e
00000130: 7c7e 0fbe 1d3c a4bc 8ec4 0bbe 7d64 4bbd
00000140: b2c0 a03d 6439 5d3e fc29 8a3d c987 41be
00000150: e351 84bd 5499 37be 5f49 1cbe af51 433e
00000160: 7d09 85bd a165 3abe 8140 92bd 377f 1fbe
00000170: e8bc 53be b8e8 533e 60fa ddbc 2cdb 853e
00000180: 4cb5 85be f8d9 b9bd 258d 6cbe b204 0f3e
00000190: 7bbc b0bd 7025 1dbe 3704 4d3e 035c b63d
000001a0: e29f 323e a98a 4fbe f03f 743d b72a e93d
000001b0: 4bbc 8b3e ba02 21bd 12f6 013d 601c 8a3e
000001c0: 8aa3 633e a08e ba3d 9829 8abc 6fb9 1ebe
000001d0: 9e73 963e e2f5 903e 8b05 533e fdb8 42be
000001e0: 59ca fc3d cef0 49be f455 833e df96 58be
000001f0: 64a1 bdbd 3dad 69be 8f58 0c3e 2d09 8a3e
00000200: a39f 86bc b453 113d 8dc5 bb3d efbd 6e3e
00000210: b258 403e f491 963c d242 40be 0355 063e
00000220: bbf8 05be 8cdf b63c 3145 1fbe 4edb 1fbe
00000230: 1e0a b8bd 1d38 45be 2574 4b3e 2143 9e3d
00000240: fd83 82be 25cb 323e a424 20be b226 83be
00000250: 3322 46be a4d9 5d3c c45f 8fbe 492f cabd
00000260: ebe8 9f3d d06f 0c3e 4b1a 503d 9ea1 95be
00000270: c17f 0f3e 9d12 3ebe 7a66 41be c582 613e
00000280: ec72 58be bb0c 063e 76e2 b5bd d0ed bbbd
00000290: 40e6 2ebe 2809 87bc 4109 303e 383d 0abd
000002a0: ae5b c9bd 52d2 9a3e a2e0 44bd cf07 59be
000002b0: 4b67 593e a43e ba3e f99c 0abe e67f 4cbe
000002c0: 4efb 98bc 8d0c bb3d cf26 533e 9dc1 273e
000002d0: f992 9dbd 4aff a9bd 1c57 1e3e 4875 763d
000002e0: e6db 383e d85c 2d3e 13cd 543e 3991 c43c
000002f0: 19ea 24be d030 c4bb b709 7c3d 95b9 fc3d
00000300: b6dc 063e e067 52bd 0792 81bd 7e45 d0bd
00000310: fad2 113e 7e24 01bd 1315 0b3e 4ef9 c7bd
00000320: 4330 f33d fde3 5b3e 8d04 11be 93b3 a13e
00000330: 2d62 6ebe 8fe0 823e 62fb 65bd 3b4a aabd
00000340: a922 b93d b1da cd3d 802b 00be 3591 d1bc
00000350: de1c 58bd d390 65be 6c24 69be 7a8d 95bc
00000360: 7b23 e33d c207 b1bd fb4c fc3d 269e 02bd
00000370: cc1e ad3e 031d b2bd ffaf a63e 203a 98bd
00000380: 2322 913e dbd3 543e fc3b 04be e931 a6bc
00000390: dfc5 95be 00a4 983d 5c86 15be 9cfe 25bd
000003a0: 68a7 03be 0f36 37bd a5d7 4bbd 4a49 ac3e
000003b0: 2071 f3bd a044 463e 255a 14be 7fc7 963e
000003c0: 4c61 b43d 8de2 2c3e 5fef 24be da96 f9bc
000003d0: 3523 013e ec71 b7bd cc27 5d3d 7ce9 833c
000003e0: b6ab ba3d 7f7f 9fbd 1d42 54be b82d 97bd
000003f0: 6768 783d a414 603e 4342 77be 0460 30bd
0.13639398 -0.0071877306 -0.17164238 0.024819074 0.21440028 0.14268559 0.2486184 -0.15129852
-0.0051557664 0.24212036 0.21178077 0.2566706 0.027797215 0.13490371 0.21626347 -0.14849526
-0.39143777 0.1456948 -0.027032416 -0.091003805 -0.2323801 -0.21739383 -0.090397365 0.1826681
0.28232962 -0.021024747 -0.0062920824 0.1094972 0.18121429 0.06210602 -0.16276084 0.009123268
-0.11442327 -0.09789151 0.04225994 -0.24130401 0.0014552604 0.011907858 -0.03228386 -0.20292176
0.004530567 -0.17952621 0.082062036 0.0055898447 -0.05775796 0.10428405 0.07483456 0.19782145
-0.02739337 -0.006090511 -0.032444347 0.20348948 -0.22865932 0.39605957 0.30277473 -0.13633811
-0.32739228 0.19459239 0.08966599 0.070808895 0.06030917 0.30158338 -0.25752544 0.33747905
0.031214036 0.0111544905 -0.07533266 0.17971402 0.0023262522 -0.14462157 0.07482171 0.076420225
-0.09838384 -0.05918376 -0.1757252 0.33221272 -0.14013094 -0.020048195 -0.13649198 -0.04965638
0.07849254 0.21603924 0.06746289 -0.18899454 -0.06460931 -0.17929584 -0.15262364 0.19074129
-0.0649595 -0.18202831 -0.071412094 -0.15575872 -0.20677531 0.20694244 -0.027096927 0.26143777
-0.2611488 -0.09074777 -0.23100717 0.13966635 -0.086297 -0.15346313 0.20021139 0.089042686
0.17443803 -0.20267738 0.059631288 0.113851 0.27292094 -0.03930924 0.03172881 0.26974773
0.22230354 0.09109235 -0.016865537 -0.15500425 0.29385084 0.28312594 0.20607583 -0.1901588
0.12343282 -0.19720766 0.25651515 -0.21151303 -0.092592984 -0.22819991 0.13705657 0.26960126
-0.016433543 0.035480216 0.09168539 0.23314641 0.18783835 0.018380143 -0.1877549 0.13118367
-0.13083164 0.022323392 -0.15553738 -0.15611002 -0.08986305 -0.19259687 0.19868524 0.077276476
-0.25491324 0.17460306 -0.15638977 -0.2561546 -0.19348983 0.013540659 -0.2800275 -0.098723
0.078080975 0.13714528 0.050806325 -0.29224867 0.14013578 -0.18561788 -0.18886748 0.22022541
-0.21137589 0.13090794 -0.088810846 -0.091762185 -0.17080021 -0.016483858 0.1719103 -0.03374979
-0.0983194 0.30238587 -0.04806579 -0.21194385 0.2123081 0.36375916 -0.13536443 -0.19970664
-0.018674519 0.09133253 0.20620273 0.16382451 -0.076940484 -0.08300646 0.15462917 0.060170442
0.18052635 0.16929948 0.20781355 0.023995029 -0.16104926 -0.005987264 0.061532702 0.123400845
0.13170132 -0.051368594 -0.06326681 -0.101695046 0.14240637 -0.031528942 0.13582258 -0.09764348
0.118744396 0.2147369 -0.14161892 0.31582317 -0.23279639 0.2556195 -0.05614794 -0.083149396
0.09039814 0.10051478 -0.12516594 -0.025581935 -0.052761905 -0.22418527 -0.227678 -0.018255938
0.11090752 -0.08644058 0.1231937 -0.031889103 0.3381256 -0.0869694 0.3255615 -0.074329615
0.28346357 0.20783941 -0.12913507 -0.02028747 -0.29252526 0.074531555 -0.14602035 -0.040526018
-0.12856829 -0.04472929 -0.0497662 0.33649665 -0.11886811 0.19362116 -0.14487512 0.29449078
0.088076204 0.16883297 -0.16106938 -0.03046744 0.12611087 -0.08957276 0.05399303 0.016102545
0.091147825 -0.0778799 -0.20728345 -0.07381767 0.06064644 0.21882874 -0.2414637 -0.043060318

fc.bias f4 [10]
00000000: 6f4f e5bd 64e5 10be bf3e 583e abdb 293e
00000010: 9d96 783d 0e39 463e e458 00be c1fc 45bd
00000020: 0129 f2bd 7a7d aabd
-0.111967914 -0.14150006 0.21117686 0.16587703 0.06069051 0.19357702 -0.12533909 -0.048336748
-0.11824227 -0.08324714
